CheckPoints/snapshot_linear/checkpoint2.pth.tar (torch_old, 986834 bytes, 33 tensors)

conv1_1.weight f4 [8, 1, 5, 5]
000000 1d 97 e7 bd 69 18 ec bc d7 56 2c be 33 13 e4 bd
       -0.113081194 -0.028820233 -0.16830002 -0.111364745
000010 8c b6 85 3d fd d4 35 be 4a 95 95 bc 2f da e2 bc
       0.06528959 -0.1775703 -0.018259663 -0.027691929
000020 e8 82 50 3d 61 3f 17 be 87 ae 1d 3e 7a be 3c be
       0.050906092 -0.14770271 0.15398608 -0.18432036
000030 9f f8 54 be a7 80 19 be 9d f7 22 3e 3e 50 61 3b
       -0.20797966 -0.14990483 0.1591477 0.0034380103
000040 d1 1c 2f 3e 11 b7 e5 bd bd ae bc bd 87 2a 19 3d
       0.17100836 -0.11216558 -0.09213016 0.037394073
000050 e8 92 65 bc 1a 6a 6b 3e 7b 3c e1 bd b1 b4 38 3d
       -0.014012076 0.22989693 -0.10997864 0.045094196
000060 cc 7f af 3c d6 2a 4b be 18 75 45 be 5e 64 a7 3c
       0.021423243 -0.1984056 -0.19282949 0.020433601
000070 d7 57 14 3a 04 3e e6 3d 46 7b 47 bd 18 b5 3d be
       0.0005658841 0.11242297 -0.048701547 -0.18526113
000080 02 ad 23 3e 90 3c 19 3d 31 98 ac 3d 72 0d 18 be
       0.15983966 0.037411273 0.08427466 -0.14848879
000090 f7 c1 07 3e 75 52 fc bc 6e 1f 34 be c6 a2 1c be
       0.13257585 -0.030801037 -0.17590114 -0.15296468
0000a0 a8 98 30 be c6 4d 2a 3e 1a aa d7 3d 45 40 50 3d
       -0.17245734 0.1663123 0.10530491 0.050842542
0000b0 9b bd 35 3e 31 a5 4a 3e 39 65 43 3e e0 2e 19 3e
       0.1774811 0.19789578 0.19081582 0.14959288
0000c0 cd 7a a3 3d 3a 3c 32 3d 4a 4b 4e 3e 67 ad 35 bd
       0.07982407 0.043514468 0.20145908 -0.044354822
0000d0 0b de 00 3e 4e ad d6 3d 49 3f 46 3d 4d 3b d3 bd
       0.12584703 0.10482274 0.048400197 -0.10314045
0000e0 74 c2 1e be 4d 68 8a 3d b9 4f 16 bd 8c ce 1f bd
       -0.15503865 0.06758175 -0.036697123 -0.039015338
0000f0 f6 ee 43 be 0d e8 26 3e 0a e9 c6 bd 59 ad 08 be
       -0.19134125 0.16299458 -0.097124174 -0.13347377
000100 48 ee f5 bd dc 0b c9 bd 4c 24 1c be 2b 07 1a 3e
       -0.12008339 -0.09816715 -0.15248221 0.15041797
000110 94 05 9b 3c 41 1e cb bc dd ad b3 bc 98 2d 0c 3e
       0.018923558 -0.0247947 -0.02193349 0.13689268
000120 b7 db 38 3e a7 02 fc 3d c7 10 2c be 8a 68 e2 bd
       0.18052565 0.123051934 -0.16803275 -0.110550955
000130 53 d2 41 be d9 3c b1 bd 0d 1d 2e 3e 09 76 7b 3d
       -0.18927889 -0.08654184 0.1700327 0.061391864
000140 10 33 01 3d 84 c5 e9 bd 06 c4 25 be d8 08 4d be
       0.031542838 -0.11414626 -0.16188058 -0.20022905
000150 f4 d9 3e 3e 89 74 b5 bd c5 19 b4 bd 7f 29 15 be
       0.1863783 -0.08860118 -0.08793978 -0.14566611
000160 c1 2f 1c bd b9 5c 04 be 55 2e f6 3d 24 06 8f 3c
       -0.03813148 -0.12925996 0.12020556 0.017458983
000170 90 df 8f bc 5e cf 0a be 31 f9 99 bd 26 8e 1b 3d
       -0.017562658 -0.13555667 -0.075182326 0.03797736
000180 0a 22 26 3e ef d2 34 3e 46 f3 8b bd 8f 70 94 bc
       0.16223922 0.1765859 -0.0683351 -0.018120078
000190 2f d9 23 be 23 88 12 be 18 76 60 be 11 e9 80 3d
       -0.16000818 -0.14309745 -0.21920049 0.06294454
0001a0 7e 30 a4 bd 71 bf 1f be 9d 71 1f 3e 0e 38 38 bd
       -0.08017062 -0.15600373 0.15570684 -0.044975333
0001b0 9b 59 15 bd d1 75 3f bb 27 93 3a 3e 67 8e 24 3e
       -0.036462408 -0.002921451 0.18220197 0.16069947
0001c0 31 93 a2 3d ca 4b ce bc 78 44 1e 3e d1 30 a2 bd
       0.07938231 -0.025182623 0.15455806 -0.07919467
0001d0 ed 6b d0 3d cb 09 45 3d 0c 38 5f bc e2 a6 27 be
       0.10176835 0.048105042 -0.013624202 -0.16372254
0001e0 ac 15 6c 3d a0 3b 16 3e 8e 16 21 3e 22 01 9c 3d
       0.057637855 0.14671183 0.1573126 0.076174036
0001f0 e4 cc ed 3d 87 c1 2a 3d 5e f1 07 bd 88 5e 83 bd
       0.116113454 0.04168847 -0.03318917 -0.06414515
000200 26 e3 ae bd 5d 78 96 bd a5 db f5 3d 2b 1f 2b 3e
       -0.08539419 -0.07347176 0.120047845 0.16711108
000210 fa e3 48 be 2d fc 95 3d eb ab 53 3e 22 c2 a7 bd
       -0.19618216 0.07323489 0.2067105 -0.08191325
000220 13 d4 2e be a1 2c c5 bd c1 37 63 3c cb d2 34 3e
       -0.17073087 -0.09627653 0.013868273 0.17658536
000230 90 af 30 3e 26 b9 9e 3d 21 7e cd bd ea d5 dc 3d
       0.17254472 0.07750158 -0.10033823 0.10782988
000240 26 fa 19 be 08 48 cd 3c 2d fc 2a be 57 99 b6 3b
       -0.1503683 0.025058761 -0.1669776 0.0055724788
000250 67 e2 35 3e 2f 6b 22 3e 2b 0d 48 bc a9 b4 02 3e
       0.17762147 0.158612 -0.012210171 0.12764229
000260 ba b2 54 bd 83 cc 39 be 8a 13 53 3e 35 10 00 3e
       -0.05192826 -0.18144421 0.20612922 0.12506182
000270 12 32 a8 bd 9f dd a0 bd 03 62 d1 bd 23 e0 85 bd
       -0.08212675 -0.07854771 -0.102237724 -0.06536891
000280 26 5e 4a be 1b a3 0c 3e 67 ce 0f 3e d7 d2 1f be
       -0.19762477 0.13734095 0.1404358 -0.15607773
000290 61 30 2b bb 01 15 ad 3d a7 a1 da bd 04 76 fa 3d
       -0.0026121365 0.08451272 -0.10675364 0.12229541
0002a0 2c af c0 bd 56 5b a8 bd a4 3e 0c 3e fc 36 15 bd
       -0.094084114 -0.08220546 0.1369577 -0.03642939
0002b0 2d 27 de 3d f2 9d 24 3e da 34 0e 3d fe 2a bb bc
       0.10847316 0.16075876 0.034718372 -0.022847649
0002c0 d0 fd bf 3d 5c b9 0a 3e 7a a8 df 3c b0 43 01 3e
       0.09374583 0.13547271 0.027302016 0.12623477
0002d0 4e f6 1f 3d c5 4f 3a be 9f bf 1c be e5 dd 59 3e
       0.039053254 -0.18194492 -0.15307473 0.21276052
0002e0 8f eb 8c 3c 28 37 b3 bd eb dd 8b 3d 96 50 7b bd
       0.017202167 -0.087507546 0.06829437 -0.06135615
0002f0 25 24 bc 3c c3 ce 2e 3e d5 21 02 3e e2 50 01 3d
       0.022966454 0.17071061 0.12708218 0.031571276
000300 b9 9b 9a 3d a7 cc aa bd a1 64 d8 3b 14 a6 08 3e
       0.07549233 -0.083398156 0.006603793 0.13344604
000310 f0 f1 01 bd 3d 93 da 3c 25 71 88 3d f5 24 81 3d
       -0.03172487 0.026681537 0.066622056 0.06305877

conv1_1.bias f4 [8]
000000 43 66 1b 3e f3 ef 31 3e db 88 5c 3d 3c f4 07 be
       0.15175728 0.1737669 0.053841453 -0.13276762
000010 b3 f7 7a bd c9 fd 2a be fd 05 ba 3d b7 cb 17 3c
       -0.06127138 -0.16698374 0.090831734 0.009264878

conv2_1.weight f4 [16, 8, 3, 3]
000000 bb 81 bc bd 3e f7 9a 3d 1b e8 d7 3d c9 9a 84 bd
       -0.092044316 0.07566689 0.105423175 -0.064748354
000010 02 3f 02 3e ea 24 0f 3d e1 f1 07 3c 4a c9 c2 bd
       0.12719348 0.034947313 0.0082974145 -0.09511049
000020 df 26 91 bc 20 fb e6 3c 65 71 f3 3d e2 49 bf 3d
       -0.01771873 0.028195918 0.11886863 0.09340264
000030 0d 30 22 3d e1 f8 89 3c 85 07 2b 3d 50 e5 86 3d
       0.039596606 0.016842308 0.041755218 0.06586707
000040 85 e4 b1 bb 10 c5 a4 bd 92 b4 a1 3d 19 e8 e6 3d
       -0.005428853 -0.08045399 0.07895769 0.11274738
000050 5b db 0f bd 7c ac d9 3d 2a a3 0b bd d3 7e 53 bd
       -0.035121303 0.10628602 -0.034091152 -0.05163462
000060 cd 76 b5 3a 44 95 28 3e b2 f6 1a 3e db c7 d6 3d
       0.001384461 0.1646319 0.1513317 0.10487338
000070 e2 4a 99 3d 56 de 3a bd ae f0 b4 3d f7 af a6 3d
       0.07484986 -0.045622192 0.088349685 0.081390314
000080 d9 bf 02 3e 4a 2b 00 3e d0 6a 28 3d 14 c4 1d 3c
       0.12768497 0.12516513 0.04111749 0.009629268
000090 5f 51 06 3a 1f 66 ca 3d c3 39 dd bd c8 06 da 3d
       0.00051238196 0.09882759 -0.10802033 0.10645825
0000a0 5a 2e c5 3c 81 b5 81 bc 0c 2c c5 3d ad c9 b3 bd
       0.024069954 -0.015833618 0.09627542 -0.08778701
0000b0 78 94 0f 3d 6e c0 a6 3d bb fb 33 3d 47 46 c4 3c
       0.0350537 0.08142172 0.04394124 0.023959292
0000c0 22 54 5d bd a2 37 a4 bc e7 b5 b2 bb 12 63 c7 bd
       -0.054035313 -0.020046059 -0.0054538134 -0.09735693
0000d0 ef 15 93 3d 9a c1 a8 3d bf 92 6a 3d 9c 03 f8 3d
       0.07181918 0.082400516 0.057268854 0.121100634
0000e0 52 ae e2 3d cb 4a a6 3b ef a2 53 3d 61 97 d1 3b
       0.11068405 0.005074834 0.051669057 0.0063962196
0000f0 e4 06 d6 3c d4 a9 4f bd d8 dd 56 bc 9a 8e e2 3d
       0.026126333 -0.05069907 -0.013114415 0.11062355
000100 ff c6 5f 3d 26 b0 d6 bd c9 45 1c 3d 8c 71 99 bd
       0.054633137 -0.104828164 0.03815249 -0.074923605
000110 25 91 4a 3d 49 cf 3c bd 68 18 e1 bd 53 4f ac 3d
       0.049454827 -0.04609612 -0.10990983 0.084135674
000120 e4 fa 87 bd af 77 c0 3d c7 f2 e0 bd e5 17 97 bc
       -0.066396505 0.09397828 -0.10983806 -0.018444011
000130 21 02 b1 3c 52 7a 89 bc ac 6d c8 bd 65 b7 3a 3d
       0.02160746 -0.01678196 -0.09786543 0.045585055
000140 1f 83 4c 3d fe 82 48 bc 7e 3c 9c bd 54 65 be bc
       0.049929734 -0.012238262 -0.076287255 -0.023241676
000150 93 6d 4b bd 72 60 ab 3d ab 72 66 bd 7c 91 06 3c
       -0.049665045 0.08368005 -0.0562617 0.008213397
000160 18 c5 e9 bd 73 da 52 bc 29 89 93 bd 63 e4 a3 bd
       -0.11414546 -0.012869465 -0.072038956 -0.08002546
000170 d3 32 a5 bd ad cf 8f bd 63 bc 08 be 8d 35 56 3d
       -0.080663346 -0.07022033 -0.13353114 0.052297164
000180 e5 16 f9 bc 75 8e 02 be cf e4 ab 3d 38 46 a1 bd
       -0.030406425 -0.12749656 0.08393251 -0.07874721
000190 99 e2 85 bd b5 fe ca bd 93 53 85 3d cb 3f 76 3c
       -0.06537361 -0.09911863 0.06510081 0.015029858
0001a0 4f d2 c2 3c 54 ce df 3d 31 b9 58 bd b9 1a cb 3d
       0.023781924 0.10928026 -0.052910987 0.09917206
0001b0 0b 31 3c bd f6 1d ef 3c 5c 46 0d 3e 3b 54 8e bd
       -0.04594521 0.029189091 0.13796371 -0.069496594
0001c0 84 82 8f bd c8 da 85 bd 3b f6 02 3e e0 e0 ac bd
       -0.07007316 -0.0653587 0.12789242 -0.08441329
0001d0 d4 cc d9 bd e5 65 87 bd bf ff 67 3d 2f 82 f7 bc
       -0.10634771 -0.06611232 0.056640383 -0.030213444
0001e0 0f 04 4c 3b 18 d5 8f bd a8 ee 67 3d 89 01 bf bc
       0.0031130349 -0.07023066 0.056624085 -0.023316162
0001f0 eb 2a 90 bd db 02 26 3d 7c 43 0f be 65 45 b2 bb
       -0.07039436 0.040530067 -0.13990587 -0.0054404014
000200 05 83 be 3c 48 67 25 3d a2 be 17 bd 4c a8 78 bd
       0.023255834 0.0403817 -0.037047036 -0.060707375
000210 47 1a f7 3d f9 bd cf bd 99 00 e5 bd 95 23 be 3b
       0.12065559 -0.10143656 -0.111817546 0.0058025816
000220 10 79 f9 bb c6 02 d0 bd 64 f0 93 bd 3f 49 42 3d
       -0.0076133087 -0.10156779 -0.07223585 0.047433134
000230 ca 18 97 3d f0 f8 bf ba 20 84 c5 3d 43 06 f5 bd
       0.07377775 -0.0014646333 0.096443415 -0.11964085
000240 83 14 0e 3d 8b 02 bc bd ba cf aa 3d c5 3f b0 3d
       0.03468753 -0.091801725 0.08340402 0.08605913
000250 b7 17 c8 bd 6e 62 b5 bd fe 6f 62 bd 89 9b 91 3c
       -0.09770148 -0.088566646 -0.055282585 0.01777436
000260 7c d2 53 3d 30 73 82 3d 4e 1d b2 bc 69 ac de bd
       0.051714405 0.063696265 -0.02174249 -0.108727284
000270 ea cc a7 3b 83 d3 e1 3d e2 15 49 bd d0 c8 a0 bd
       0.005120863 0.11026671 -0.049093135 -0.07850802
000280 a2 27 f8 bc 5a eb 92 bd c2 3b 68 3d ef 34 40 3d
       -0.030292336 -0.07173796 0.056697614 0.04692548
000290 61 8e 18 3d 1b d2 69 bd e4 07 92 bd ae 77 0a 3e
       0.037245158 -0.057085138 -0.07130411 0.13522217
0002a0 de 03 ef bc ab 9b 42 bc c0 34 c9 3d 04 23 17 bd
       -0.029176649 -0.011877934 0.098245144 -0.036898628
0002b0 e0 ec 30 bc f5 37 25 bd fc 1c 8e bc f5 da 53 3d
       -0.010798663 -0.040336568 -0.017347805 0.051722486
0002c0 72 0c 93 3d 1c c3 d0 bd bf ad 91 bd 43 0d cc 3d
       0.07180108 -0.10193464 -0.071132176 0.09963467
0002d0 a7 c7 5f bc 47 19 b4 bd 0b 79 dd bd c0 9f 18 3d
       -0.013658441 -0.08793884 -0.10814103 0.037261724
0002e0 83 90 38 3d e8 9e b2 3d 2f f7 89 3a ca 36 9d 38
       0.045059692 0.08721715 0.0010525937 7.496549e-05
0002f0 c6 1a 9c bc c9 84 93 3d d5 09 b8 3d f3 9e 1a 3e
       -0.019055735 0.07203061 0.0898625 0.15099697
000300 f8 52 a1 bd 9f 26 0c 3e 74 3c 95 3d 26 a1 09 bc
       -0.07877153 0.13686608 0.07286921 -0.008400237
000310 ec 61 86 3d 27 1d 10 3d cc 8f b9 ba d7 c9 8d 3d
       0.06561646 0.03518405 -0.0014157235 0.069232635
000320 ec 8d b9 3d 4f a4 bb 3c 7d e3 aa 3d 32 65 2a 3d
       0.090602726 0.022905497 0.08344171 0.041600414
000330 9f f6 e5 3d 78 22 a3 3d 3b 88 51 bc d6 34 2a bd
       0.1122868 0.07965559 -0.0127888275 -0.041554295
000340 08 c2 e6 bd fb 1a cf bd 77 fb 0f bd f5 93 52 3d
       -0.11267477 -0.10112568 -0.035151925 0.051410634
000350 98 4d 2b 3d 82 0f c5 bd 7d 00 bd 3d f8 bb d5 3d
       0.041822046 -0.096220985 0.09228609 0.10436243
000360 73 6b 9a bc af 26 4f bd 9b 2c ca 3d e1 bb eb 3d
       -0.018850064 -0.050574 0.09871789 0.115104444
000370 21 2f d7 bc ff 8d 65 bd c0 66 a7 3d 70 fe 57 3d
       -0.02626759 -0.05604362 0.08173895 0.052732885
000380 ca 34 b0 bd 45 8e a1 bc 54 ea e3 bc b0 6a 31 bd
       -0.08603819 -0.01972116 -0.027821697 -0.043314636
000390 3b 8c bd bb dd 19 ea 3d b2 10 aa 3d 58 27 5c bd
       -0.005784539 0.11430714 0.08303966 -0.05374846
0003a0 84 1b b4 3d 9e 2a 09 3d d2 80 99 3d c7 c5 09 3e
       0.08794311 0.03348791 0.07495274 0.13454352
0003b0 d1 21 09 3e 94 f6 2a 3d 01 36 30 3d 7a 20 87 3d
       0.13391806 0.04173906 0.043020252 0.06597991
0003c0 14 0e 50 3d 6e 0e 3b bd ea 62 d1 3b e2 e0 a0 bc
       0.050794676 -0.045668058 0.0063899653 -0.019638482
0003d0 c4 3e df bd 8e 87 93 3d a0 ab 29 3e 44 0a 2c 3e
       -0.109006435 0.072035894 0.16569376 0.16800791
0003e0 3f 6d bb bd f0 ce 4c 3e 95 ae 91 3d 8e b6 21 3d
       -0.091516964 0.20000815 0.07113377 0.03948074
0003f0 22 f2 a7 bd 63 cd 91 3b 87 92 14 bd 4c 3c d8 bd
       -0.0820048 0.004449533 -0.036272552 -0.10558376

conv2_1.bias f4 [16]
000000 5c 4b 80 bd 5e 7d 88 3d 11 c4 63 bd 47 b2 06 3d
       -0.06264374 0.06664537 -0.055606905 0.032884862
000010 40 c6 b3 bc 65 f9 e8 3d f2 91 5e 3d 2f 9f 27 3c
       -0.021945119 0.11375693 0.054338403 0.010230823
000020 58 e6 76 bd 2c 1c d7 3c 92 f4 53 bd 38 02 5a 3d
       -0.060278267 0.02625855 -0.051746912 0.053224772
000030 1f eb c4 bd 1e 4e 25 3d 01 6e 80 bd 56 72 ca 3c
       -0.09615158 0.0403577 -0.062709816 0.024712723

conv2_2.weight f4 [16, 16, 3, 3]
000000 ca 95 20 3d b1 b8 24 bc 4d 77 97 3d 0f 82 9d bd
       0.03920535 -0.0100537995 0.07395802 -0.07690822
000010 2e bd 58 3d 38 2e 1c 3d a0 72 60 bd 2b 61 72 3d
       0.05291479 0.038130015 -0.054796815 0.059174698
000020 43 ac a1 bc 80 3c c2 3d 7b 42 c7 3d e1 f4 71 3d
       -0.019735461 0.09484196 0.09729477 0.059071425
000030 47 ba 0f 3d fb 88 cb 3d 6c 7c 08 3d 0a 35 39 3a
       0.035089757 0.09938236 0.033321783 0.00070650934
000040 f3 ae 96 3d 29 2d 38 3d 9a 29 d0 3c cb 37 98 3d
       0.07357588 0.044964943 0.025410462 0.07432517
000050 e1 33 0d bb ef a5 6d bd 39 94 17 bc 7b ed 7f bd
       -0.0021545815 -0.058019575 -0.009251648 -0.06248234
000060 a6 18 90 3d 76 2e 00 3d 21 62 1f bd 18 18 7c 3b
       0.07035951 0.03129431 -0.038911942 0.003846651
000070 39 3c 30 bd 94 f5 a6 bd 14 25 f0 3c 32 a3 ee bc
       -0.043026183 -0.08152309 0.029314555 -0.029130552
000080 d3 b1 ae 3d 7f 94 a6 bd 74 4e bc bc 80 3a 8d 3d
       0.08530011 -0.08133792 -0.022986628 0.068959236
000090 d1 6a c2 bb cc 2f a5 bd 4d b3 b3 3d 98 cb 9d 3d
       -0.0059331437 -0.08065757 0.08774433 0.07704848
0000a0 34 f1 d3 3c 40 cf 37 3b 1f f2 bf 3d ed 93 01 3c
       0.02587185 0.0028047115 0.09372353 0.007908803
0000b0 44 ed d6 3d 78 c7 33 bd 12 b3 00 3d 3b 12 c5 3d
       0.104944736 -0.0438914 0.031420775 0.09622618
0000c0 fa b2 82 bc fb 67 23 bb 09 47 aa 3c e0 32 7e bd
       -0.015954483 -0.0024933803 0.020785825 -0.062060237
0000d0 5a 48 59 3c d7 ba 88 bd 94 75 8f 3d 5d 6b b8 bc
       0.013261879 -0.06676262 0.07004848 -0.022512132
0000e0 b2 71 8a 3d 13 12 51 3d 8c 41 5a 3d b5 88 4c 3d
       0.06759967 0.051042628 0.053285167 0.04993506
0000f0 1f b0 af bc dd 0d 5b bd f9 4e aa bc f2 ee 12 3c
       -0.021446286 -0.053480018 -0.02078961 0.008968102
000100 f7 c6 b4 3d 73 d5 c4 bb ab 16 67 3d 8d f7 aa 3d
       0.08827012 -0.0060068904 0.056418102 0.08347998
000110 db 15 5d bc b2 ec 85 bc 13 e6 ca bb b7 2f 1f 3c
       -0.01349398 -0.016348217 -0.0061919778 0.009715966
000120 eb d4 0c 3d 9d b6 ef 3c a2 a5 a8 bd 34 72 88 3d
       0.034382742 0.029261881 -0.08234717 0.066624075
000130 83 89 fb bc 87 ba 97 bd 65 ae ba bc bb 08 43 3d
       -0.03070522 -0.07408624 -0.022788236 0.047615748
000140 2d b5 a6 bd 73 22 b1 3c 5e 92 c2 bc 78 d9 aa 3d
       -0.08140025 0.021622872 -0.023751434 0.0834226
000150 84 b9 80 3d 1f ea 06 bd 7c 82 e3 3d 07 2a a1 3d
       0.06285384 -0.03293812 0.11108872 0.07869344
000160 92 d1 b3 3b 31 fc 3e 3a 29 24 8c 3a ce c1 8e 3d
       0.005487629 0.0007285504 0.0010691929 0.06970559
000170 bf b2 68 3c 18 c4 59 bd 11 2c 9b 3b 4d 18 d4 bd
       0.014202773 -0.053165525 0.0047354777 -0.103561975
000180 d9 b8 b8 3c 51 21 de 3b e6 1f 68 3c da 58 8e bd
       0.02254908 0.006778874 0.014167761 -0.06950541
000190 52 c6 9f 3d ab 55 bc bc 2e fe 18 bd b4 bb ea bb
       0.078014985 -0.022990068 -0.03735178 -0.0071634892
0001a0 85 aa 44 3d 44 46 cc 3d 90 eb 24 bd 4d b2 8d 3d
       0.048014183 0.099743396 -0.040263712 0.06918774
0001b0 09 b5 b6 3b 11 02 6f bc 5a 31 2a 3d ae ed af 3d
       0.0055757803 -0.014587895 0.04155097 0.08590256
0001c0 ba 4e 0b 3c 74 27 8e 3c ea 36 a8 bc 02 ac 50 3d
       0.008502657 0.017352797 -0.020533998 0.05094529
0001d0 47 20 d8 bd 5e 8b 80 bc 5c 34 f6 bd a8 fa 86 3c
       -0.105530314 -0.015691455 -0.120217055 0.016476944
0001e0 d7 78 a3 bc 15 37 4e bb 21 e2 e0 ba ed c4 1f bd
       -0.019955082 -0.0031465937 -0.0017157235 -0.039006162
0001f0 3b f8 89 3b 8c 70 88 3d 8a cf e3 3d cf bb 93 3d
       0.0042104996 0.066620916 0.11123569 0.07213556
000200 40 af 34 be e6 52 97 3d eb 28 b5 bd 26 06 c1 bd
       -0.17644978 0.073888585 -0.08845695 -0.09425001
000210 2f 60 98 3b 8f d7 f0 bc 4d b3 b2 3d f0 4d 64 bd
       0.004650138 -0.029399661 0.08725605 -0.05573839
000220 01 f2 78 ba a6 f1 c3 3c ac 98 cd 3c b1 df fe 3c
       -0.00094965106 0.023918938 0.025097214 0.031112524
000230 0b 18 f5 3c 61 e9 0f 3d d6 c1 85 3d c1 a0 e2 3c
       0.029918691 0.035134677 0.06531112 0.027664544
000240 c0 2b 68 bd 6e 4a af 3d dd 7b 19 bd fd fe a9 3d
       -0.05668235 0.08559118 -0.03747164 0.08300588
000250 6f bc be 3d 89 88 11 3d 4b 39 7e 3d 3a 52 93 bc
       0.093132846 0.0355306 0.062066358 -0.017983545
000260 1c 61 63 bd 01 31 14 bd 93 5d 28 bd d2 c6 00 3d
       -0.055512533 -0.036179546 -0.041104864 0.03143961
000270 b2 e1 d6 bc 60 51 20 3d b4 93 16 3d a6 f6 42 bd
       -0.026230667 0.039140105 0.036761954 -0.047598504
000280 24 11 34 bc e2 a5 a1 3d 6a a6 ab bc b4 78 51 3d
       -0.010990415 0.07892968 -0.020953376 0.051140502
000290 6b 79 a1 3d 03 9b c2 bc 01 7c 5d 3d 2e b4 93 3c
       0.07884487 -0.023755556 0.054073337 0.018030252
0002a0 e6 bc 42 3c 2d 6c a5 3d 25 34 00 3d 70 5b 92 bc
       0.011885857 0.080772735 0.03129973 -0.017865866
0002b0 82 24 97 3d b6 4e ac 3c 1c 26 a0 3d 1b 6c 7a 3d
       0.0738001 0.021033626 0.07819769 0.061138254
0002c0 f6 83 9f 3d 73 0b b1 3d 0f ee ba 3c ca 04 60 3d
       0.077888414 0.08644762 0.022818593 0.054692067
0002d0 0d dd 75 bc 52 62 70 3d 1a 1a 57 3c 11 55 99 bd
       -0.015006316 0.058687516 0.013128782 -0.07486928
0002e0 05 c3 2d 3d bc 77 8e bb ef 96 6a bc da ae 92 bd
       0.042422313 -0.0043477695 -0.014318212 -0.071622565
0002f0 2b c3 3f bc 52 96 76 ba 62 f8 bf bb 85 1f a7 3c
       -0.0117042465 -0.0009406555 -0.005858467 0.020400772
000300 82 74 99 3c 60 aa 36 bd d3 ef 5e 3d e2 e6 a2 bd
       0.018732313 -0.044596076 0.054427933 -0.07954194
000310 ad 29 f0 3b 68 58 5a bd b5 08 35 bd ac e1 29 bd
       0.007329187 -0.053306967 -0.044197757 -0.041474983
000320 c2 dc 01 bd f3 28 a3 bd 48 eb 48 b9 25 07 01 bd
       -0.03170467 -0.07966795 -0.00019161135 -0.031500954
000330 e1 ff 0f 3d cb a2 ac bd 66 05 1a 3d c1 d0 83 3d
       0.035156135 -0.08429488 0.037602805 0.06436301
000340 53 32 05 bd 8f 60 80 bd ef ec 14 bc dc df a2 3d
       -0.032518696 -0.06268417 -0.0090896925 0.07952854
000350 66 af 87 bd cf 9f 99 3b 2a d5 f5 3c ef 1b 3a 3d
       -0.066252515 0.00468824 0.030008871 0.045436796
000360 94 1c b3 3d 3d 67 e5 3a 75 2e 55 3d 97 6f 50 3b
       0.08745685 0.0017502081 0.052046258 0.0031804794
000370 b5 f1 6b 3d 2a 90 e9 bc 2d 23 80 3d cd f4 b4 3d
       0.057603557 -0.028511126 0.06256709 0.088357545
000380 bc e6 02 bd d4 6e 50 3c 28 6d cb bd 84 60 18 bd
       -0.031958327 0.012721736 -0.09932929 -0.03720142
000390 f8 99 b5 bd b3 17 78 bc 12 e3 53 bd e9 16 d9 bc
       -0.08867258 -0.015142369 -0.051730223 -0.026500182
0003a0 26 0e 3b bd 7d 83 c5 bd 71 41 ca 3c 46 6f bf bc
       -0.04566779 -0.0964422 0.024689408 -0.023368489
0003b0 ac f2 a2 bd 20 99 fa bb 62 24 08 bd 1a 9d b6 3c
       -0.07956442 -0.0076476485 -0.033237822 0.022291709
0003c0 3a ae b1 bc 06 c1 6b 3d 45 bc b4 bd b7 02 78 bd
       -0.021689523 0.05755713 -0.08824972 -0.060549464
0003d0 fb 20 69 bd 57 47 80 bd 9a 0a 53 bd 70 9d 4c bd
       -0.05691622 -0.06263607 -0.051523782 -0.04995483
0003e0 6b ec ce bc e1 17 af 3d 68 4f 25 3d 1f 03 aa 3c
       -0.025259217 0.085494764 0.04035893 0.020753441
0003f0 15 e1 01 bd 9b 7d 64 3d c4 79 81 3d 84 85 28 3d
       -0.031708796 0.05578385 0.06322053 0.041142955

conv2_2.bias f4 [16]
000000 1b 32 9a bd 43 20 4d 3d fa 3b ab 3c e8 2c 24 bc
       -0.07529088 0.050079595 0.020902622 -0.010020472
000010 2f db 84 3d 66 23 89 3d 44 d1 9a 3c 50 b3 9a 3d
       0.064871185 0.06696205 0.018898614 0.075537324
000020 06 8a 43 bd 3f e5 87 bd 01 e9 83 3d 3f 3c b9 bd
       -0.04773905 -0.06635522 0.06440926 -0.09044694
000030 a8 5e 62 3d 94 fb d1 bc e2 b1 8e bd e4 c2 48 bc
       0.055266052 -0.025632657 -0.06967522 -0.012253497

conv3_1.weight f4 [24, 16, 3, 3]
000000 5c 57 1f ba 89 e2 a0 bd d6 7d 33 be b0 6e 0d be
       -0.0006078386 -0.07855708 -0.17528471 -0.13811755
000010 33 14 3d be 6f 02 45 be d3 b2 32 bd 0d cb 24 be
       -0.18464737 -0.1923921 -0.04362757 -0.16093083
000020 d3 29 b6 bd ed 8f 06 bc 66 d7 9e bc 65 6e 97 3d
       -0.08894696 -0.0082130255 -0.01938982 0.07394103
000030 6d 79 90 3d 42 48 d5 3c 23 0e 93 bd 3c 24 eb 3a
       0.0705441 0.026035432 -0.07180431 0.0017939876
000040 ab a6 11 bd 91 93 df 3c b7 a6 ab 3d 15 89 16 3c
       -0.035559338 0.027292045 0.08381408 0.009187956
000050 b5 53 09 bc f6 d0 d2 3c ef c3 a4 3b f7 c7 46 bc
       -0.008381774 0.025734406 0.00502824 -0.012132636
000060 c7 6c 1b bd d3 23 b7 bd 60 37 3f bd 2e 18 a2 bc
       -0.037945535 -0.0894238 -0.04668367 -0.01978692
000070 81 10 b7 3d 4a 72 ff 3c 6b 91 48 3d 42 68 86 3d
       0.08938695 0.031182427 0.048966806 0.06562854
000080 2c ef b1 3c f1 bf 98 bb 25 f1 1a bb ad 38 47 3d
       0.021720491 -0.004661553 -0.0023642268 0.048638035
000090 2c 65 c3 3c 22 f8 42 bd aa 3a 74 3c c3 e2 1e bc
       0.023851953 -0.04759992 0.014906565 -0.009697619
0000a0 48 77 d5 3c f4 ff 4e bd ec 23 3d bd 09 31 bc 3c
       0.026057854 -0.050537065 -0.046176836 0.0229726
0000b0 8c c5 9c 3d d1 04 55 3c 29 9f a9 3c b4 63 e3 bc
       0.076548666 0.013001637 0.020705776 -0.027757503
0000c0 66 57 9d 3c 53 ca 30 3d 14 e1 ed 3c 36 61 8a bd
       0.019206714 0.0431617 0.02903799 -0.06756823
0000d0 40 ab 2d 3d 83 2f 7f bd 5a 72 56 bc 75 d3 9f bc
       0.042399645 -0.06230117 -0.013088787 -0.01951001
0000e0 77 61 20 3d 99 93 45 bd be 50 c7 3b f2 30 87 3d
       0.03915545 -0.048236463 0.0060826233 0.066011325
0000f0 9d f9 1b bd ec 46 9a bc 01 bb f8 3b b1 b9 cd 3d
       -0.038079847 -0.018832646 0.007590652 0.100451834
000100 41 cf 27 bd c7 b8 a5 3d f7 6b 20 bd 40 b0 40 3d
       -0.040969137 0.08091884 -0.039165463 0.047043085
000110 d5 77 30 3d 20 f9 6d 3d 5f db 1c 3d f1 d4 c5 3d
       0.04308303 0.058098912 0.038295146 0.09659756
000120 e2 6e e6 3b 6b cd 61 bd 05 2e 37 3c c7 25 c5 3d
       0.007032261 -0.055127542 0.0111804055 0.09626346
000130 d2 91 a7 3c 62 28 d3 3c c2 c0 01 bd d7 fe 3a bb
       0.020455275 0.025776092 -0.03167797 -0.0028533244
000140 a0 4d 8f ba ec 0b a8 3d 05 26 3c 3d 5a 92 8d 3d
       -0.0010933168 0.08205399 0.045934696 0.0691268
000150 41 99 ae 3d 34 b8 93 3d a7 96 c2 bc 10 cb 23 3b
       0.085253246 0.07212868 -0.023753477 0.002499286
000160 fb 05 58 bd 7a ee 82 bd a8 ec 06 3e c2 6e ae 3d
       -0.05274008 -0.06393142 0.13176215 0.08517219
000170 53 a7 15 3d 11 05 2e bd 71 de 21 bc 57 f4 a9 bc
       0.036536526 -0.0424853 -0.009879694 -0.020746393
000180 fe b8 38 3c f8 97 27 36 d6 4c 4d 3d e6 a9 58 bd
       0.011274574 2.4973397e-06 0.050122105 -0.052896403
000190 4f 48 8a 3b 90 65 62 3c 8a 24 9c 3d 08 50 2d b8
       0.0042200456 0.01381816 0.07624157 -4.132095e-05
0001a0 1b 30 ae 3c 85 3b 50 3d 80 44 00 3e 72 76 94 3c
       0.021263173 0.050838012 0.1252613 0.018122885
0001b0 ba 01 c5 bc a8 b8 08 3c c6 62 b8 3d d2 04 7e 3d
       -0.024048675 0.008344807 0.090032145 0.062016316
0001c0 80 64 9d bd a7 fe 9e bd fa 14 68 3d 09 8a 93 3d
       -0.076851845 -0.07763415 0.05666063 0.072040625
0001d0 8d 38 a9 3d db 30 28 3c f2 80 3e 3c e0 14 4a bd
       0.08262739 0.010265554 0.011627423 -0.049336314
0001e0 0b 40 9c 3d da bc 39 bc 4a 65 9b bd ce 87 6f 3d
       0.07629403 -0.01133653 -0.07587679 0.058479123
0001f0 94 b3 27 bc 48 86 e9 bd 53 8b 94 bd 2c 01 b2 bd
       -0.010235686 -0.11402565 -0.072531365 -0.0869163
000200 55 9a 42 bb d1 67 a7 bb 8b c9 11 3d 7a 48 46 bb
       -0.002969404 -0.0051088114 0.035592597 -0.0030255602
000210 7f ce 4f bd 40 b8 9e 3d 60 c0 05 bd 24 26 49 3d
       -0.05073404 0.07749987 -0.032654166 0.04910864
000220 6e aa 31 3d 9b 97 6d 3d 3f 9e d3 bc 93 ca 62 3d
       0.043375425 0.05800591 -0.025832294 0.05536897
000230 c7 5f 3f bc 13 d5 86 bc 57 71 8d bd cf d1 0a bd
       -0.01168055 -0.016459024 -0.069063835 -0.033891495
000240 7f f6 a3 3c 0d 85 1b bd d7 fd ab 3d f8 7b a6 3b
       0.020015 -0.037968684 0.083980255 0.005080696
000250 ca 54 22 bd 8d b7 a4 3d 3c 7f 90 3d 6e 3b 1c 3d
       -0.039631642 0.08042822 0.07055518 0.038142614
000260 37 22 34 bc ad 62 e0 3a 2d 3d 8a 3d 88 b3 9c bc
       -0.010994486 0.0017119251 0.067499496 -0.019128576
000270 24 91 b2 3d 30 a4 91 3d a6 97 bb bb ed 63 cf bb
       0.087190896 0.071113944 -0.005724865 -0.0063290508
000280 0f 38 58 3d 89 16 7d 3d 4c 9d d3 3d ce 37 d5 3d
       0.052787837 0.06178907 0.103327364 0.104110345
000290 ec bc b6 3b a2 61 b7 3d 96 3e 9f bc 75 4e 6d 3d
       0.0055767205 0.08954169 -0.019439023 0.05793615
0002a0 b9 b0 81 bc e4 22 3e 3d c0 52 d2 3d 09 81 7e 3c
       -0.015831338 0.046419993 0.102696896 0.015533694
0002b0 6e b9 5c ba e8 c3 12 bd e0 90 79 bd 49 01 c1 bc
       -0.0008419965 -0.035831362 -0.06092918 -0.023560183
0002c0 e2 6b 45 3d b8 97 ac bc 7c 56 a9 3d 06 98 f5 3c
       0.04819859 -0.021068439 0.08268449 0.029979717
0002d0 5d 0b ab bd cd d3 a0 bb dc 19 a1 3c e6 b9 7a bd
       -0.08351777 -0.004908061 0.019665651 -0.061212443
0002e0 99 b8 9a 3b df 60 1e 3d 04 62 75 3d bd da a5 3d
       0.004721713 0.038666602 0.059907928 0.08098362
0002f0 05 c7 3f bc 42 ac b7 3b c6 a1 aa 3d 37 0b 00 bd
       -0.011705165 0.0056052515 0.08331637 -0.031260695
000300 ae 49 7c 3d be 7b 53 3d 93 e1 9e 3c 32 6a 57 bd
       0.061593704 0.05163168 0.019394672 -0.05259151
000310 af fc 9d 3d c4 3e 8c 3b 3b 28 3b bd 47 a3 5c bd
       0.07714211 0.004279943 -0.045692664 -0.05386665
000320 be 08 db bc 35 63 92 bd 83 52 e8 bc 45 7b 2d 3c
       -0.026737567 -0.071478285 -0.028359657 0.010588472
000330 58 cc c6 bc 6d a8 b6 bd dd 56 73 3d ee cc 90 bc
       -0.02426736 -0.089188434 0.05940901 -0.017675843
000340 fc bd f0 3c 3d fb 03 bd 46 79 22 3b a7 63 78 bb
       0.029387467 -0.03222202 0.0024791523 -0.0037901194
000350 f2 1a 68 3d 9b 90 ec bc c8 59 1e 3d 58 cb 5c bd
       0.056666322 -0.028877547 0.03865984 -0.05390486
000360 27 22 bc 3c 1c d7 87 bd 2d 0e 54 bc 8c 51 93 3d
       0.022965504 -0.06632826 -0.012942833 0.07193288
000370 c7 73 22 bd aa 91 6b 3d d7 5c 8d 3c 09 ab 3b bd
       -0.039661195 0.057511963 0.017256184 -0.04581741
000380 d5 8a a4 bd bd 75 ef 3c 06 70 c9 3c 05 7b c4 bc
       -0.080342926 0.029230947 0.02458955 -0.023984442
000390 eb 53 08 bd f5 48 60 3d 4e 87 3f bd c6 1d 8e 3c
       -0.033283155 0.054757077 -0.046759896 0.017348181
0003a0 2f 03 5d bd 76 9e 83 3d fe 02 6e bd b1 03 4d bd
       -0.053958114 0.064267084 -0.058108322 -0.05005235
0003b0 20 63 8b 3d 25 6b f3 3c a8 05 f6 bc bc d1 e7 bc
       0.06806016 0.029714176 -0.030031994 -0.028298251
0003c0 7d 1c 89 3d 0e 78 76 bc 66 8a da bc 86 64 90 3c
       0.06694887 -0.015043272 -0.026677322 0.017626058
0003d0 64 21 9e 3d a2 ba 98 3d b9 79 70 bd c8 f7 c4 3c
       0.077212125 0.074574724 -0.058709834 0.024043933
0003e0 70 36 6c 3c ca 9c 51 bd 57 61 9c bd e2 b6 67 3d
       0.014417276 -0.051174916 -0.076357536 0.056570895
0003f0 2e 78 ae bc c8 61 3f bc 30 ec 7a 3d 7b 25 fc bc
       -0.02129754 -0.011681028 0.061260402 -0.03077959

conv3_1.bias f4 [24]
000000 cb 95 58 bd 2c 94 2d bd 32 d0 12 3d d8 c8 07 3d
       -0.05287723 -0.042377636 0.03584308 0.033150524
000010 33 b0 a3 bc 18 0e 90 bc 58 fa 40 3d 6c 59 ab 3d
       -0.01998148 -0.017584845 0.047113746 0.08366665
000020 f8 c3 04 3d 65 6d 9c bd e1 c7 73 3c 4a a8 a6 bd
       0.032413453 -0.07638053 0.014879198 -0.08137567
000030 c7 5b 81 3d de 48 4e bd fe de 1c 3d 08 da 26 3d
       0.06316333 -0.05036246 0.0382986 0.040735275
000040 43 d8 c6 bd 66 31 d7 bc c5 8a e7 3b f9 98 ef 3b
       -0.097092174 -0.026268672 0.007066103 0.007311937
000050 11 43 71 bd 7b 8a a6 3d 51 90 92 bd e5 1d 86 3c
       -0.05890185 0.08131882 -0.071564324 0.016371677

conv3_2.weight f4 [24, 24, 3, 3]
000000 98 39 83 3d 62 b3 81 bb b9 dc 83 bd eb 65 53 bd
       0.064074695 -0.0039581517 -0.06438584 -0.05161087
000010 ad 97 c3 bb 5c e1 11 3d fb 31 74 bd 4e 96 c4 3c
       -0.005969009 0.03561531 -0.059617978 0.023997452
000020 89 b0 4f bd 3e 04 00 bd 22 31 9c bb c1 e5 75 bd
       -0.050705466 -0.031254046 -0.0047665993 -0.060033564
000030 43 6c 37 bc 72 3d 96 3c 38 8c be 3c 8e 27 ac bc
       -0.011195245 0.018339846 0.02326022 -0.021014955
000040 c7 55 53 bd 5c 05 78 bd ee 41 7a 3d 97 2a b4 3d
       -0.051595476 -0.060551986 0.06109803 0.08797186
000050 2b 74 29 bd 4e 10 b1 3c df 94 a8 3d f1 0d 70 3d
       -0.041370552 0.02161422 0.0823152 0.058607046
000060 c0 ae 1b bc 44 42 5c 3d a2 c1 67 3d cc b5 06 3d
       -0.009502113 0.053774133 0.056581147 0.03288822
000070 3e de 8a 3d 35 fe 03 3c a8 32 10 bd 08 14 60 3c
       0.067806706 0.008056213 -0.03520456 0.013676651
000080 5e 17 89 bd 47 04 19 3c 28 18 29 3d 25 df 43 3d
       -0.0669391 0.009339399 0.041282803 0.04782023
000090 d8 32 68 bc e5 09 83 3d 0a 14 58 bd 4f 71 58 3d
       -0.014172278 0.063983716 -0.052753486 0.052842434
0000a0 d5 fd 9d 3c 77 b3 2c bd 6c 36 54 3d a4 9d 06 bc
       0.019286076 -0.04216334 0.051809713 -0.008216295
0000b0 94 60 68 3d 12 e8 6c 3d 1b d0 92 3d eb bd 3f 3d
       0.05673273 0.057838507 0.07168599 0.04681198
0000c0 93 e3 30 3c d6 66 0b 3d 27 30 62 3d 0f e1 75 3d
       0.010796445 0.03403362 0.055221703 0.060029086
0000d0 fd 1d 6e 3d 20 e5 bd bc 28 8b 50 bc 2e c8 df 3c
       0.058134068 -0.023180544 -0.01272849 0.027317133
0000e0 64 ec 39 3d 6f 8e 6a 3b 16 ec 22 3b 67 0a 8a 3d
       0.045391455 0.0035790463 0.0024859956 0.06740265
0000f0 09 fe 93 3c fa 34 c8 3c d0 e6 1e bd 30 98 13 3d
       0.01806547 0.024439324 -0.03879434 0.03603381
000100 ef e3 ca bc c4 ff 49 b9 a9 93 e7 3c 1b c4 4b 3d
       -0.02476689 -0.00019264134 0.028268652 0.049747568
000110 be e0 66 3b 70 07 52 bd b6 07 37 bd a4 84 94 3d
       0.0035229172 -0.051276624 -0.044685088 0.07251862
000120 7b 7a 2c bc 91 bc 8d 3d 65 a0 8b bd 00 3b 2c 3d
       -0.0105272485 0.06920732 -0.06817702 0.042048454
000130 15 e0 7e 3d 30 b6 02 3d e0 59 5b 3d 2a 9a 64 bd
       0.06222542 0.03191203 0.05355251 -0.055811085
000140 38 06 46 bd e9 36 83 ba f9 be 3a bd 49 cb 43 3d
       -0.048345774 -0.0010010871 -0.045592282 0.04780129
000150 ca ee 85 bc 43 16 ea 3c 0c 1b 03 3d 58 4a 16 3c
       -0.016349215 0.028575068 0.032008216 0.009172998
000160 66 0b 8d 3d 44 e5 8a bb 67 25 2b be 5d 7d 7c bd
       0.0688694 -0.0042387564 -0.16713487 -0.061642993
000170 c3 c6 da bd 02 7e 1c bd 7c 9e b4 bc 03 6a 72 bd
       -0.10682442 -0.038206108 -0.022048227 -0.059183132
000180 c5 9e af 3c 51 6a b8 bd c9 8e a7 bd 44 f4 92 bd
       0.021438012 -0.09004653 -0.08181531 -0.07175496
000190 3f b5 3e bd 60 bd 36 3d b3 31 44 bc 7c b4 89 bd
       -0.04655957 0.044614196 -0.01197474 -0.06723878
0001a0 21 4b 5e bc 7f ff 03 bd ed ef 53 3d 68 16 17 3d
       -0.013567717 -0.032226082 0.051742483 0.036886603
0001b0 7a a6 36 bd 54 e0 9a 3c 26 07 14 bd 23 ef a0 bc
       -0.04459236 0.018905796 -0.03613963 -0.01964528
0001c0 d8 c5 16 bd 3f 2e e7 3c 0c 85 1f bc 7b a1 41 bd
       -0.036809772 0.028220294 -0.009736311 -0.04727314
0001d0 9b 26 ad bb a3 6f 9b bd c4 9d 89 bd 4c 9c 88 bd
       -0.005284143 -0.075896524 -0.067195445 -0.06670436
0001e0 cc db 18 bc f2 cd 0c bd 05 25 dd 3b 2c e7 d2 3c
       -0.009329747 -0.034376092 0.006748798 0.025744997
0001f0 1c 8b 2b 3d 41 b8 3d bd 51 10 a7 3d 64 15 93 3d
       0.041880712 -0.046318296 0.08157409 0.07181814
000200 7b 67 04 3d 93 b6 af 3d 5f ef 47 bc a8 f8 a7 3c
       0.03232525 0.08579745 -0.012203067 0.02050431
000210 7c e8 89 3d c3 72 a5 3d d7 d5 9b 3d f1 1a 31 3d
       0.06733796 0.0807853 0.07609146 0.043238584
000220 eb a2 c5 3c d8 f3 7d bd 09 b6 cc 3c e0 89 57 bd
       0.024125537 -0.062000126 0.024989145 -0.052621722
000230 01 4e 89 bd 1c e3 0d 3d 97 ed 1c 3d 85 b8 a8 3c
       -0.06704331 0.034640417 0.03831252 0.020595798
000240 11 ac 04 3d 26 92 86 bd 69 9c 60 bd af fa fb 3c
       0.032390658 -0.06570844 -0.054836664 0.030759184
000250 3a 38 41 3d 24 a5 89 bd 9e d3 80 bd 9c 6d ae bd
       0.047172762 -0.06720951 -0.06290363 -0.08517
000260 6e 49 26 3d c5 bf da bb 5d d5 e2 bc 0a 80 27 3d
       0.04059737 -0.0066756927 -0.02768963 0.040893592
000270 b3 f8 f5 bc c3 3e 4e 3c 7f 5b 2b 3d f3 05 1a bd
       -0.030025816 0.012588206 0.041835304 -0.03760333
000280 0b 64 1a bb af 01 4b 3c 2f 6f 6c 3c 2a 43 af bc
       -0.0023558165 0.012390538 0.014430805 -0.021394331
000290 04 b8 57 3d 9a e8 da 3c 22 53 13 3c 71 39 13 3d
       0.052665725 0.026722241 0.008991988 0.035943452
0002a0 29 a7 27 3c 4d e6 53 bb 99 79 9f 3d 5c d6 97 3c
       0.010232725 -0.0032333315 0.07786865 0.018534832
0002b0 6f 8a 68 bd 9a 01 82 3d 3f b9 17 3d 53 d5 1e 3d
       -0.056772646 0.06347962 0.0370419 0.03877766
0002c0 02 fb e7 3c 54 22 0a bd 88 9c cb 3c c3 8c 27 3d
       0.028317932 -0.033724144 0.024854913 0.040905725
0002d0 99 fb be 3c e9 ec 4c bd 94 7c e4 ba 22 15 7e 3d
       0.02331333 -0.050030623 -0.0017432147 0.062031873
0002e0 49 fb 3d bd f4 62 81 bd 25 dc a4 3d c9 d9 5f 3b
       -0.046382222 -0.06317702 0.08049802 0.003415691
0002f0 f5 04 f6 3c 96 bd 1f bd 90 5c 52 3d 0e 49 88 3d
       0.03003166 -0.038999163 0.051357806 0.06654559
000300 77 d2 30 bd cd 90 06 bd 4a 1c cf 3c 2a f2 59 3c
       -0.043169465 -0.032852937 0.025282044 0.013302365
000310 c3 3a 16 bc 26 b3 58 bd d3 0e c0 3c 5c fe 37 bd
       -0.009169283 -0.052905224 0.023444569 -0.04492031
000320 5d f1 a2 bc 30 10 63 3d 73 05 2e bc 4d 7d cd bc
       -0.019890482 0.05543536 -0.010621416 -0.025084162
000330 0b 3b ae 3c 52 b2 35 3d 2f 41 99 bd 01 59 87 bb
       0.021268388 0.044359513 -0.07483136 -0.004130483
000340 51 d8 ba bc 78 ba 60 3c 3d 6b c2 3b 28 88 7e 3d
       -0.022808226 0.013716333 0.005933194 0.062141567
000350 36 40 be 3c e8 64 5f 3d 25 ff 2a 3d 67 d4 94 3d
       0.023223978 0.05453959 0.04174723 0.07267075
000360 3d f1 60 3a fa 04 95 3d da 35 43 3d 86 ec d9 bc
       0.0008580869 0.0727634 0.04765878 -0.026602041
000370 4d 30 57 3d e1 ae 7e 3d 6e f0 eb 3b 08 8c 6c bd
       0.052536298 0.062178496 0.0072002923 -0.05775073
000380 9f 16 5e 3c 1a e6 68 bd 76 8a 5b 3d 92 8c 17 3c
       0.013555198 -0.056860067 0.053598844 0.009249823
000390 74 d3 97 bd 6f f2 ad bc 9e 06 fc bb e0 ba 4e bd
       -0.07413378 -0.021233765 -0.0076912185 -0.050471187
0003a0 13 5c b1 bc de 63 4e 3c 02 a7 c6 3b de 94 70 3c
       -0.02165035 0.012597052 0.0060623894 0.01468393
0003b0 d6 10 3c 3d 06 ca 8d 3d bb c3 e5 ba ab 0b a4 3d
       0.045914494 0.069232985 -0.0017529646 0.08010038
0003c0 c4 bb 39 3d 2a d7 8a 3d d9 55 e6 bc f8 4e 8e 3d
       0.045345083 0.067793205 -0.028117107 0.06948656
0003d0 d1 03 19 bd ec cb 3c 3d 0f 85 55 bd 59 7e 02 bd
       -0.037357155 0.046092913 -0.052128848 -0.031858776
0003e0 aa ef 48 3c dc e7 7d bd e9 b6 89 bc 3c 21 ba bd
       0.012264172 -0.061988696 -0.016810851 -0.0908837
0003f0 c6 d3 87 3d 54 7b ab 3b ae a9 a5 3d fd 84 97 3d
       0.066321895 0.0052332077 0.080890045 0.073984124

conv3_2.bias f4 [24]
000000 56 f9 5f bd cd eb 86 bd 73 7e 72 bb b3 73 34 3c
       -0.054681145 -0.06587944 -0.003700164 0.011013913
000010 0d b4 88 3d 74 6c 4f 3c e8 e4 a9 3b b0 e3 a4 3b
       0.06674967 0.012660135 0.0051847585 0.0050320253
000020 bc 26 81 bd cf 39 43 3c 0e 66 41 3d e5 f8 88 bd
       -0.06306216 0.011915638 0.047216468 -0.06688098
000030 80 3e 4b 3d 6a 14 8e bb 1a 23 79 3d fa de 7e 3c
       0.04962015 -0.0043359296 0.06082449 0.015556091
000040 d3 0d 4b 3c 21 d4 ee 3c 7c b2 86 bd 3a 4d 45 3b
       0.012393433 0.029153885 -0.06577012 0.0030105845
000050 20 99 72 3a 87 6c 3b 3c 99 b5 33 bd f4 91 df ba
       0.0009254385 0.011439449 -0.043874357 -0.0017057047

conv4_1.weight f4 [40, 24, 3, 3]
000000 e2 14 75 bd c2 b2 90 bd 20 9b 9b bd b7 5d 6d 3c
       -0.05983437 -0.07065345 -0.07597947 0.014487675
000010 dd 18 8b 3c ce 9c 17 3d af 5b 4c 3d b0 71 4c bc
       0.01697963 0.037014775 0.049892124 -0.012478277
000020 88 17 d1 bc 0d f8 68 bd 8d ba 00 bc 17 e6 4d 3d
       -0.025523916 -0.056877185 -0.007856977 0.05026826
000030 4f 0e 6f 3c ab 75 ab bd b4 19 cf bc f4 02 c2 bc
       0.014590814 -0.08372053 -0.02528081 -0.023683049
000040 5d a2 04 3d e5 bd 76 3d 9a 86 0e bd f5 14 b8 3d
       0.032381404 0.06023969 -0.034796335 0.08988372
000050 53 38 6e 3d 3f 6a 33 bb db 09 56 3c bb 50 b4 bc
       0.058159184 -0.002737656 0.013063873 -0.022011152
000060 c7 1c 25 3d 29 1a 0e 3d 85 b5 86 bc ee 2a 9b 3d
       0.040310647 0.034692917 -0.016443977 0.075765476
000070 09 2e a3 bd 43 67 9e bd 52 e1 cb 3d a5 9b c0 3c
       -0.07967765 -0.07734539 0.09955086 0.023511717
000080 70 50 c9 3d c0 78 46 bd b4 31 28 bd 66 da 58 bc
       0.09829795 -0.048455 -0.041063026 -0.013235664
000090 ea c1 1a bc cf b8 cf ba 99 71 02 bd 43 b1 ce 3c
       -0.009445647 -0.0015847924 -0.031846616 0.02523101
0000a0 15 56 38 bc 27 6f 7b 3d c3 a7 8d bc 52 4a e2 3c
       -0.011250992 0.0613853 -0.01729191 0.02762333
0000b0 32 74 66 3d 22 98 99 bd 28 a1 91 ba bf 55 89 3d
       0.056263156 -0.0749972 -0.001111065 0.06705808
0000c0 f4 58 1c 3d 0b 6b 82 bd 08 76 1c 3d 6f 69 49 bd
       0.03817077 -0.06368073 0.0381985 -0.049172815
0000d0 86 9d d4 bd fd 49 e6 bd ba 23 3c 3d 3a c6 96 3c
       -0.10381608 -0.11244581 0.04593251 0.018405069
0000e0 ff 67 35 3d dd 04 a3 3d ae 41 3d bc 13 bf fd bb
       0.04428863 0.07959912 -0.011551304 -0.007743725
0000f0 48 81 97 3d 0f b8 04 bd 08 c6 7c 3d 1a 7b 7a 3d
       0.07397705 -0.032402094 0.061712295 0.061152555
000100 12 ac 75 bd 2f 18 2c bd 05 24 af bb 96 cf 88 bd
       -0.059978552 -0.04201525 -0.00534487 -0.06680219
000110 e9 7a ed 3a 3b 27 82 bd a6 11 e5 bc 33 f2 8c bd
       0.0018118295 -0.06355139 -0.027962517 -0.06882133
000120 6c 2e 49 be 53 55 8e 3d 9b a2 04 3d cb b5 a7 bd
       -0.19646615 0.06949868 0.032381635 -0.08188971
000130 90 2a 50 3d b0 09 20 bd 4c 63 89 3d c8 74 70 bd
       0.05082184 -0.03907174 0.067083925 -0.05870512
000140 ab 35 a8 bd af 99 63 3d c2 05 9f 3d 03 d9 d3 39
       -0.08213361 0.055566486 0.0776477 0.00040406742
000150 3a d6 d2 bc 37 65 fb 3b 3e 71 f8 3c aa a9 00 3d
       -0.025736917 0.007671978 0.030327436 0.031411804
000160 0d 81 cb 3d 70 55 b3 3c 24 98 1b bd 3f c5 8a 3c
       0.09936724 0.021891326 -0.03798689 0.016939757
000170 f4 ae c8 3c a2 6c 7a 3d bb 71 45 bd 16 e6 22 bd
       0.024497487 0.061138757 -0.048204165 -0.03977021
000180 f1 b3 8f bb e7 49 13 3d dc 07 34 bd 64 ec 1e bd
       -0.0043854644 0.03595915 -0.043952808 -0.03879966
000190 ec 0e a8 bd 5f 47 ec 3c 02 3e 02 bd f9 d8 47 bd
       -0.08205971 0.028842626 -0.031797417 -0.048790906
0001a0 f2 a0 12 bd d1 45 bf bc 0d 65 20 bd 2c b5 1f 3c
       -0.03579802 -0.02334872 -0.03915887 0.009747785
0001b0 78 61 2e 3d 51 86 fa bc 92 70 88 3d 1b 56 7a bd
       0.042573422 -0.030581625 0.06662096 -0.061117273
0001c0 7c 75 42 3d d0 b0 16 3d b0 16 79 bd 4e a3 41 3d
       0.047475323 0.036789715 -0.060812652 0.04727488
0001d0 df df 20 3c a2 df b3 bb ba 6d 74 bd 17 0a 2a 3b
       0.009819 -0.0054893056 -0.059674956 0.0025945955
0001e0 b6 6b 3a ba 0d 77 50 bd eb 07 10 bc 0d cd 88 bd
       -0.0007111387 -0.050894786 -0.00879095 -0.06679735
0001f0 e9 f4 bb bd a6 51 39 bc 0f 94 97 3c 8c c1 33 3d
       -0.09177572 -0.01131097 0.018503217 0.043885753
000200 e7 ba 58 3d b9 31 92 3d 4b 40 12 bd c7 8a 1f bc
       0.05291262 0.0713839 -0.035705846 -0.009737677
000210 fd 87 36 3d 5a 20 4a 3d f6 63 03 bc 31 50 57 3d
       0.044563282 0.04934726 -0.008019438 0.05256671
000220 6b b2 88 3c a0 6b a3 bd 5f 2e 48 bd f7 5f 8e 3c
       0.016686639 -0.07979512 -0.048872348 0.017379744
000230 bd 64 ba 3d ba 7a e5 3c 82 59 2a 3d 9f fb e8 bb
       0.091012456 0.028012622 0.041589268 -0.0071100737
000240 81 d3 01 bd 24 2e db bb 95 b5 d4 3c 76 48 ff bc
       -0.031695846 -0.00668885 0.025965491 -0.031162482
000250 6d 9d 73 bd a5 9e 1d 3d 64 69 77 3d d1 32 0b bd
       -0.059476305 0.038481373 0.060403243 -0.03398401
000260 42 a7 27 3d 91 ed 68 3d 12 fe c3 3d c2 c3 53 bd
       0.040930994 0.056867186 0.095699444 -0.05170036
000270 a2 f3 11 3c 23 ff 92 3d 1f fa c2 bb 84 d7 6f 3a
       0.008908184 0.0717757 -0.005950227 0.0009149241
000280 7a 44 2c bd eb ce 31 bd fd 03 4b bc 04 12 9d 3c
       -0.04205749 -0.043410223 -0.012391088 0.01917363
000290 60 59 fe 3c 73 da 53 bd b6 43 31 bc cb a7 54 bd
       0.031048477 -0.051722 -0.010819366 -0.051917832
0002a0 69 13 a9 bc c8 98 f0 3c 55 ea a2 3d 9a 20 90 3c
       -0.020639138 0.029369727 0.079548515 0.01759367
0002b0 67 3c 91 3c fb 23 23 3d 8a c6 45 bc fe a8 b3 3c
       0.017728997 0.039829236 -0.012071261 0.021931168
0002c0 00 9b 5e bc b5 c9 20 3d db 1a 17 3c 92 9c 94 bd
       -0.01358676 0.039254863 0.009222711 -0.07256426
0002d0 28 58 61 3d b1 3c a8 3d 61 f6 a4 3c 8a d8 83 3d
       0.055015713 0.08214701 0.020137014 0.06437786
0002e0 64 86 b5 3c bd a1 2e 3d 51 2e 0b bc cf bc 3b bd
       0.022158809 0.042634714 -0.008494929 -0.04583436
0002f0 bb 58 8e 3d e8 a3 b0 3b 17 c0 d7 bd e6 08 80 bd
       0.06950518 0.005390633 -0.10534685 -0.06251697
000300 40 6e 3e 3d 9f 20 99 bd 1a c8 7c bd 83 83 34 bd
       0.04649186 -0.07476925 -0.06171427 -0.04407073
000310 3a a8 ec bd a8 0e a5 bc 09 f4 34 be dd 98 ed 3b
       -0.11555524 -0.02014859 -0.17671217 0.0072508887
000320 ac 42 e6 3d 3b 5b 96 bc ee 23 7f bc 5b d6 de 3c
       0.112431854 -0.018354049 -0.015572531 0.027201822
000330 a6 72 b5 3c 2a 36 cb bd 0c b9 26 be d8 a8 5b 3d
       0.022149395 -0.0992244 -0.16281527 0.05362782
000340 44 f3 35 bd b1 4b 59 bd 20 95 11 3d 18 7d 9d bc
       -0.04442145 -0.0530507 0.035542607 -0.019224688
000350 92 6d a1 3b 54 a0 7b bd 36 21 35 bd e0 06 75 bd
       0.004926392 -0.061432198 -0.044221126 -0.05982101
000360 15 a6 6f bc bf 8e 3c bb 55 9f 04 3a 0a f8 a1 3c
       -0.014626999 -0.0028771607 0.0005059143 0.019771595
000370 72 e3 89 bc 14 4f e8 3c 94 be 1c bd b0 a3 c1 bc
       -0.016832087 0.02835802 -0.038267687 -0.023637623
000380 f3 80 ad 3d 56 8d 0d 3c 22 74 f9 3c 79 97 bd 3c
       0.08471861 0.008639654 0.030450884 0.023143517
000390 a8 f6 c1 3c ab 11 f9 bc 32 d3 14 3d e5 53 bf 3c
       0.023677185 -0.030403933 0.036334224 0.023355434
0003a0 d5 14 f4 bb dd fc 8b 3d 4d 8e 40 bd 3c 9d 3d 3c
       -0.0074487724 0.06835339 -0.04701071 0.011573132
0003b0 13 a9 90 3b 31 1d 61 bd 67 46 42 3d a8 fd a9 bd
       0.0044146865 -0.05495948 0.047430422 -0.08300334
0003c0 3a 60 d9 bc 0e dd 64 ba 11 d3 82 bc 56 2a 9b bc
       -0.026535142 -0.00087304495 -0.015969785 -0.018941086
0003d0 d3 99 90 3c f3 bf 43 bc 70 02 23 bd 14 08 12 3d
       0.017651474 -0.01194762 -0.039797246 0.035652235
0003e0 ac ad 98 bd ba 33 55 3c b8 9b f3 bc 74 c8 34 b9
       -0.07455 0.013012821 -0.029737338 -0.00017240812
0003f0 65 79 27 3d 64 75 06 3d fc 0d 3e 3d d7 40 24 bd
       0.040887255 0.032826796 0.046400055 -0.0401009

conv4_1.bias f4 [40]
000000 b7 82 2a 3d 6b 43 b2 bc 72 35 db 3c ef 77 30 bd
       0.041628566 -0.021760663 0.026758883 -0.043083128
000010 d4 38 84 3d fb 0f 89 bd 6f c8 4e bd c8 de 71 3d
       0.064561516 -0.06692501 -0.050484117 0.05905035
000020 61 e9 22 3d 73 85 55 3d 4e d4 2e 3d 9e 61 2a 3c
       0.03977335 0.05212922 0.04268294 0.01039925
000030 b0 b4 a8 3c 77 60 59 3d 04 36 57 bb 46 e8 3c bc
       0.020593971 0.05307051 -0.0032838592 -0.011529988
000040 57 a9 5e 3d 09 58 81 3c e7 d3 14 bd 70 fa 8c 3d
       0.054360714 0.015789049 -0.0363349 0.06883705
000050 9e 2d 5e 3d e2 6c 57 bc 62 03 61 bb d4 e1 9f 3c
       0.054242723 -0.013148518 -0.0034334292 0.019516863
000060 16 0b 29 bd 7c 49 9d 3d 91 ce 37 3d 60 49 7b 3d
       -0.041270338 0.07680032 0.04487473 0.061349273
000070 46 d2 88 3c 3d 7f aa bc 28 0d 01 3d 27 b3 2e 3c
       0.016701829 -0.020812625 0.031506687 0.01066283
000080 6b 02 c4 3c 38 68 82 3d 9f 9d 0d 3d 93 2a f9 3c
       0.023926934 0.063675344 0.034574147 0.030415809
000090 81 17 04 bd b6 cd 85 3c da f3 d8 bb 81 31 71 3d
       -0.032248978 0.016333442 -0.0066208662 0.0588851
