CheckPoints/snapshot_linear/checkpoint.pth.tar (torch_old, 948107 bytes, 20 tensors)

conv1_1.weight f4 [8, 1, 5, 5]
0	0xbd5e780a	-0.054313697
1	0x3dbb89fc	0.09157178
2	0x3e634aa5	0.22196443
3	0xbc6b29fa	-0.01435327
4	0xbd853938	-0.06505054
5	0x3e1e7063	0.1547256
6	0x3e03601b	0.1282963
7	0xbdcf3a1c	-0.10118505
8	0x3da999a9	0.082812615
9	0x3e11a617	0.14223514
10	0x3e863a8a	0.26216537
11	0x3ca267a3	0.019824808
12	0x3e0e248c	0.13881129
13	0x3e5dd897	0.21664654
14	0x3e4df385	0.20112427
15	0x3d3f585c	0.046715125
16	0x3e066464	0.13124233
17	0x3dc8feef	0.0981425
18	0x3e2c571e	0.16830108
19	0xbd6aa2b0	-0.057284057
20	0x3d820e0c	0.063503355
21	0xbde9ba99	-0.11412544
22	0xbdf96d99	-0.12179107
23	0x3e859a09	0.26094082
24	0x3e7782e1	0.2417102
25	0xbd8426cc	-0.064527124
26	0x3e16fa30	0.14743876
27	0x3dc07154	0.093966156
28	0x3e454a49	0.19266619
29	0x3db5f9c8	0.088855326
30	0x3d98c35d	0.074591376
31	0x3d9c12c3	0.07620766
32	0xbd691e67	-0.05691376
33	0x3de552a9	0.11197407
34	0x3d967d94	0.07348171
35	0xbd4e394b	-0.050347608
36	0x3daac444	0.08338216
37	0x3dcc9ffa	0.099914506
38	0xbdebb253	-0.11508622
39	0xbdbaba27	-0.09117537
40	0xbc10ce30	-0.008838221
41	0x3e2c42c8	0.1682235
42	0x3d961e6a	0.0733002
43	0xbe26f4fe	-0.16304395
44	0xbe4b12e9	-0.19831432
45	0xbe1b0acc	-0.15140837
46	0x3ce43c52	0.027860794
47	0xbd9d3480	-0.07676029
48	0xbe7d2f91	-0.24725176
49	0xbe2d9c0c	-0.16954058
50	0x3db730ee	0.089448795
51	0xbe64b843	-0.22335915
52	0xbe9577d9	-0.29193
53	0xbe4ea70d	-0.20180912
54	0x3b2833e9	0.0025665706
55	0xbe50dd87	-0.20397006
56	0xbe5574ae	-0.20845291
57	0xbe8102ea	-0.25197536
58	0xbe892ddf	-0.2679281
59	0xbdf2c000	-0.11853027
60	0x3d9364be	0.071969494
61	0xbe5329df	-0.20621441
62	0xbecaff22	-0.39647776
63	0xbea4db16	-0.321984
64	0xbd71bf1a	-0.05902014
65	0x3e21e12a	0.1580855
66	0xbd6e0d4a	-0.058118142
67	0x3c3dcb69	0.011584141
68	0x3c244656	0.010026535
69	0x3dc8fdc9	0.09814031
70	0xbcbc4fbe	-0.022987243
71	0xbd421789	-0.047385726
72	0xbe38f091	-0.18060519
73	0x3c9d7993	0.01922301
74	0xbdaffddc	-0.08593342
75	0x3b860da8	0.0040909834
76	0x3ce20f90	0.027595311
77	0x3e11605c	0.14196914
78	0xbb0343d3	-0.002002944
79	0xbe0627aa	-0.13101068
80	0x3d09b7a7	0.03362241
81	0x3e3020a1	0.17199947
82	0x3d87b434	0.06626168
83	0x3c76ac5f	0.015055745
84	0xbd8fe624	-0.07026318
85	0x3dc18f61	0.094511755
86	0x3e82dc7f	0.2555885
87	0x3c071bea	0.008246401
88	0xbd596e56	-0.05308374
89	0x3d7a2a05	0.06107523
90	0x3dd8da97	0.10588568
91	0x3e650022	0.22363332
92	0x3eb03cd7	0.34421417
93	0x3df4098e	0.11915885
94	0x3e5e47d9	0.21707095
95	0xbd591749	-0.053000722
96	0x3e8001a5	0.25001255
97	0x3e7fa1c3	0.24964051
98	0x3e0dccb6	0.13847622
99	0x3cc849ab	0.02444919
100	0xbd15ce07	-0.036573436
101	0xbd4faccf	-0.050701912
102	0xbe233351	-0.15937544
103	0xbdecfa9d	-0.11571238
104	0xbe12a09f	-0.14319085
105	0xbeb1f873	-0.34759864
106	0xbe9011c6	-0.2813856
107	0xbea9d89e	-0.33173078
108	0x3d65faae	0.05614727
109	0xbe372ecd	-0.17888947
110	0xbe94c5f7	-0.29057285
111	0xbe023d0c	-0.127186
112	0xbc9d85d0	-0.019228846
113	0xbe33d20d	-0.17560597
114	0x3c95422c	0.01822003
115	0xbe2bed20	-0.16789675
116	0x3bc89ba7	0.006122071
117	0x3d8b39c9	0.06798131
118	0x3d59fc7a	0.053219296
119	0xbda82f42	-0.08212139
120	0x3db9b73f	0.090681545
121	0xbdd2c00d	-0.10290537
122	0xbb27530f	-0.0025531685
123	0x3e6e965a	0.23299542
124	0x3e3aebd8	0.1825403
125	0x3e051be9	0.12998928
126	0xbd841b84	-0.06450561
127	0xbce9d1f2	-0.028542493
128	0xbe5a6045	-0.21325786
129	0x3de49298	0.11160773
130	0x3df8acab	0.12142309
131	0x3d9781b4	0.07397786
132	0x3e35ec34	0.17765886
133	0xbe3653ff	-0.1780548
134	0xbd1140dd	-0.03546225
135	0x3d5e3bb0	0.05425614
136	0x3dcb2c3d	0.09920547
137	0x3c8f4046	0.017486703
138	0x3be7677f	0.0070618982
139	0x3d63510d	0.055497218
140	0x3e5a72dd	0.2133288
141	0x3e0c57ad	0.1370532
142	0x3e553183	0.20819668
143	0xbce2ba88	-0.027676836
144	0xbd1e08df	-0.03858268
145	0x3e5c0d8b	0.21489541
146	0x3de5a378	0.1121282
147	0x3e130c9c	0.14360279
148	0xbe357c3d	-0.17723174
149	0xbdba5b68	-0.090994656
150	0x3da2e6ba	0.07954164
151	0xbe62310d	-0.22089024
152	0xbe2d18a7	-0.16903935
153	0xbe4ac832	-0.19802931
154	0xbbea224d	-0.0071452023
155	0xbe77c0cf	-0.24194644
156	0xbe5eedec	-0.21770447
157	0xbd9e4058	-0.07727116
158	0xbd3d17a4	-0.046165124
159	0x3e01e6a2	0.12685636
160	0xbd5ba701	-0.053626064
161	0xbe2b82fa	-0.16749182
162	0x3dc9d871	0.09855736
163	0x3dd3c432	0.10340156
164	0x3dae998e	0.08525382
165	0xbcccf538	-0.025019273
166	0xbd44e828	-0.048072964
167	0x3d7b914e	0.06141787
168	0x3e08369b	0.1330208
169	0x3e9d8add	0.30770007
170	0xbddae89f	-0.106889
171	0xbd8f1a5d	-0.0698745
172	0x3e412d71	0.18864991
173	0x3e92ead9	0.286948
174	0x3e16adef	0.14714788
175	0xbd31da62	-0.043421157
176	0xbe0e4cee	-0.13896534
177	0x3e402534	0.18764192
178	0x3ede2c15	0.43393007
179	0x3eafc28d	0.34328118
180	0xbe7d0a93	-0.24711065
181	0xbe02a0e0	-0.12756681
182	0x3cca714c	0.024712227
183	0x3e254f44	0.16143519
184	0x3ed0e9a1	0.40803245
185	0xbee9ea04	-0.45686352
186	0xbeefd266	-0.4684021
187	0xbeaf4f69	-0.34240273
188	0xbe7da60a	-0.2477037
189	0x3e6bd52c	0.23030537
190	0xbebb590e	-0.3659138
191	0xbe6b6e06	-0.2299119
192	0xbe5c2a09	-0.2150041
193	0xbe5e32e8	-0.21699107
194	0x3dff01ed	0.12451539
195	0xbd8b5116	-0.06802575
196	0xbe43ec8f	-0.19133209
197	0x3c29b917	0.01035907
198	0xbddb504d	-0.107086755
199	0x3e561bb8	0.20909011

conv1_1.bias f4 [8]
0	0xbc8c8177	-0.017151577
1	0x3e932f16	0.2874686
2	0xbec80a46	-0.39070338
3	0x3dc0a983	0.09407332
4	0xb762a2e8	-1.3508579e-05
5	0x3e2bfe03	0.16796117
6	0x3d2af202	0.041734703
7	0x3d922de1	0.07137657

conv2_1.weight f4 [16, 8, 3, 3]
0	0xbded9e1f	-0.11602425
1	0x3d3a5c89	0.045498405
2	0xbd9c1034	-0.07620278
3	0xbc93a2a5	-0.01802189
4	0xbd9378c9	-0.07200772
5	0x3e1d932f	0.15388177
6	0x3cf0d7c6	0.029399764
7	0x3ccca9f5	0.024983386
8	0xbd51b447	-0.051197316
9	0x3cfe8967	0.031071378
10	0xbd82d191	-0.06387628
11	0xbdb4ed4f	-0.088343255
12	0x3e1b9c74	0.15196401
13	0x3dbb56af	0.09147393
14	0x3d380949	0.04493073
15	0xbdb71140	-0.08938837
16	0x3d60e7b6	0.054908477
17	0x3c43c41d	0.0119486125
18	0x3ca17999	0.019711303
19	0xbd812edf	-0.06307768
20	0x3ca24c87	0.019811882
21	0xbc7743d2	-0.015091853
22	0xbd00c8ef	-0.031441625
23	0xbe251842	-0.16122535
24	0x3d095184	0.033525005
25	0x3e155348	0.1458255
26	0xbe098dae	-0.13432953
27	0x3d0fe06b	0.03512613
28	0x3dabdab1	0.083913215
29	0x3de2f4d1	0.11081851
30	0xbddb676e	-0.10713087
31	0xbe0d9f8d	-0.13830395
32	0x3e3549a4	0.17703873
33	0x3dae5dec	0.08514008
34	0xbe40c462	-0.18824914
35	0x3d52e6b4	0.051489547
36	0x3d0e86d1	0.03479654
37	0x3d5d84c4	0.054081693
38	0x3a2956ec	0.0006459791
39	0x3e05fcb1	0.13084675
40	0x3ddf453b	0.109018765
41	0xbdf5e19d	-0.12005923
42	0xbdaad363	-0.083411
43	0x3e03e459	0.12880076
44	0x3d1109e1	0.035409812
45	0xbbfcc46d	-0.0077138455
46	0x3a1c1288	0.0005953689
47	0x3cbad468	0.022806361
48	0xbd54b07a	-0.051926114
49	0xbe4cb607	-0.19991313
50	0x3d38b06c	0.045090124
51	0x3e4e38e9	0.20138897
52	0xbc162370	-0.009163722
53	0x3a9b0c6d	0.0011829265
54	0xbdeb2b7c	-0.11482903
55	0x3deaa8cb	0.11457976
56	0xbe09ba9e	-0.13450095
57	0xbd64b6f9	-0.05583856
58	0x3e93fe60	0.2890501
59	0x3c31ffbc	0.0108641945
60	0x3d354dcf	0.044263657
61	0x3d899076	0.06717007
62	0xbba52f60	-0.005041048
63	0xbcf7a50b	-0.030230066
64	0xbd464714	-0.04840763
65	0xbc8b6a97	-0.0170186
66	0x3ce83f41	0.028350474
67	0x3e1c1e44	0.1524592
68	0xbe07af68	-0.13250506
69	0xbe36679b	-0.1781296
70	0x3dab12a9	0.083531685
71	0x3d49ada2	0.049237855
72	0x3d560fe4	0.05226125
73	0xbda318a9	-0.07963688
74	0x3d6237b0	0.05522889
75	0x3e2d86a5	0.16945894
76	0xbd86b9ae	-0.06578384
77	0xbe12fde9	-0.14354672
78	0x3ce9794f	0.028500227
79	0xbc7a82cb	-0.015289973
80	0x3cd8519e	0.026406106
81	0xbcaf95f2	-0.021433804
82	0x3d0fef5a	0.035140373
83	0x3e008161	0.12549354
84	0x3e179f8a	0.14806953
85	0x3d8cce8f	0.068753354
86	0xbd305d82	-0.043057926
87	0x3e6091ea	0.21930662
88	0xbdfb8a03	-0.12282183
89	0xbdf78c31	-0.12087286
90	0xbd692a7a	-0.056925274
91	0x3d59bd6e	0.05315917
92	0xbc67494f	-0.014116599
93	0xbe51bb58	-0.20481622
94	0xbd9a68dc	-0.075395316
95	0x3e081ef3	0.13293056
96	0xbdbb70b1	-0.091523536
97	0x3d4ec93d	0.050484885
98	0x3d03b47d	0.03215455
99	0x3ce160d8	0.027511999
100	0xbc1c7a47	-0.009550638
101	0xbc7ed5e9	-0.01555393
102	0xbcb6b2ce	-0.022302058
103	0xbd6a83de	-0.057254665
104	0xbe1152bd	-0.14191718
105	0x3dd12b2c	0.102133125
106	0xbdd67ec1	-0.10473395
107	0x3d7bf3fb	0.061511975
108	0xbd48f567	-0.04906216
109	0x3e07f214	0.13275939
110	0xbc930e53	-0.017951166
111	0xbe3e8226	-0.18604335
112	0x3d06743d	0.032825697
113	0x3d25d6e5	0.040488143
114	0xbd9b9e61	-0.07598568
115	0x3dd9d09c	0.10635492
116	0x3db78013	0.08959975
117	0xbc98ba5b	-0.018643549
118	0xbbbe2200	-0.005802393
119	0x3d2e9300	0.04262066
120	0x3e079c61	0.13243248
121	0x3dd83ec0	0.105588436
122	0xbc63aab5	-0.01389568
123	0xbd211f32	-0.03933639
124	0x3d1d2d44	0.038373247
125	0xbd2e29d9	-0.042520378
126	0x3e9c3c2a	0.30514652
127	0x3c1e7bb4	0.009673048
128	0x3e0227f8	0.1271056
129	0xbd196c3b	-0.037456732
130	0xbe387af1	-0.18015648
131	0x3f2f5b96	0.68499124
132	0xbec071a2	-0.37586695
133	0x3dcb81f0	0.09936893
134	0x3eb89249	0.36049107
135	0xbd1f186d	-0.038841654
136	0x3dedccb5	0.116113104
137	0xbbc80ff2	-0.0061054165
138	0xbe102dce	-0.14079973
139	0xbcf9ac0d	-0.030477548
140	0x3e21942f	0.15779184
141	0xbb323bb2	-0.0027196226
142	0xbca2f3a6	-0.019891571
143	0xbaa6a4ba	-0.0012713887
144	0xbd531893	-0.051537108
145	0x3dba537e	0.09097956
146	0x3da04b2c	0.07826838
147	0x3db92ad8	0.09041375
148	0xbd90e418	-0.070747554
149	0x3d0d2c6c	0.034466192
150	0x3e493bac	0.1965167
151	0x3cf01abd	0.029309625
152	0x3a908094	0.0011024647
153	0xbd589bb0	-0.05288285
154	0xbca705db	-0.020388534
155	0x3db43986	0.08800034
156	0xbe2fcb0d	-0.17167301
157	0xbe10801c	-0.1411137
158	0xbddb173d	-0.10697792
159	0xbe2305f1	-0.15920235
160	0xbc8444d0	-0.016146094
161	0xbc805ed4	-0.015670218
162	0xbca729d9	-0.020405697
163	0x3d052101	0.032502178
164	0xbd3ec6be	-0.046576254
165	0x3d072933	0.032998275
166	0x3dd4cc78	0.10390562
167	0x3e171004	0.14752203
168	0xbe16b128	-0.14716017
169	0xbce44f4d	-0.027869845
170	0x3df38209	0.118900366
171	0xbd8e1398	-0.06937331
172	0xbceeaaf8	-0.029134259
173	0x3e0b7b71	0.13621308
174	0x3c57ebf7	0.013178817
175	0xbdf3b47e	-0.118996605
176	0xbda3ea60	-0.08003688
177	0x3e6c37a7	0.23068105
178	0xbd37f281	-0.044909004
179	0xbe3127d1	-0.17300345
180	0x3de25679	0.110516496
181	0x3d42b4ef	0.047535833
182	0xbe0f7ff2	-0.14013651
183	0xbd3ac27a	-0.045595624
184	0xbb964c90	-0.0045867637
185	0xbd3a6d7e	-0.045514576
186	0xbc3a8cec	-0.011386137
187	0xbdc040e2	-0.093873754
188	0x3dd2cead	0.102933265
189	0xbe440a0d	-0.19144459
190	0x3d2b61a3	0.04184116
191	0x3e0bda61	0.13657524
192	0xbc4d2b3f	-0.012522518
193	0xbde066e0	-0.10957122
194	0xbe33bf2f	-0.175534
195	0x3cab6675	0.020922879
196	0x3d9384da	0.07203074
197	0xbe1c8b1b	-0.1528744
198	0xbd507bbd	-0.050899256
199	0x3b67021f	0.0035249067
200	0xbe6cf8ea	-0.23141828
201	0x3df3ba16	0.119007275
202	0xbe0fd3dc	-0.14045662
203	0x3e16ad85	0.1471463
204	0xbd3f0a82	-0.04664088
205	0xbdff444a	-0.12464197
206	0xbe8228cd	-0.25421754
207	0x3e1e5f3e	0.1546602
208	0x3d3e8ffd	0.046524037
209	0xbd660872	-0.056160398
210	0xbda98874	-0.082779795
211	0x3e170ea6	0.14751682
212	0x3e09720c	0.13422412
213	0xbd806c6f	-0.06270682
214	0x3c23719f	0.00997582
215	0xbd3a2109	-0.04544166
216	0x3d2b4dd6	0.041822277
217	0x3d701915	0.05861767
218	0xbdd9de27	-0.10638075
219	0x3df712e8	0.12064153
220	0xbdf23cf1	-0.1182803
221	0xbe416058	-0.18884408
222	0x3e305798	0.17220914
223	0x3da71ac7	0.08159404
224	0xbd88897e	-0.066668496
225	0xbd9076a5	-0.0705388
226	0x3e7a647e	0.24452397
227	0x3e9d63ee	0.30740303
228	0x3cc8efb1	0.024528356
229	0x3d962e08	0.073329985
230	0xbd642c99	-0.055706594
231	0x3dfb9a2a	0.12285264
232	0x3d1d7865	0.038444895
233	0x3d2a7b15	0.041621286
234	0xbddae6fa	-0.106885865
235	0xbd61c1d4	-0.05511649
236	0xbd2ded46	-0.04246261
237	0xbda2e41c	-0.07953665
238	0x3dd919d0	0.106006265
239	0x3e0c8530	0.13722682
240	0xbe335e6f	-0.17516492
241	0x3dbaf7ca	0.09129293
242	0x3da8310d	0.08212481
243	0xbd63733b	-0.055529814
244	0x3dcc89b8	0.09987205
245	0x3be08503	0.0068517937
246	0xbd3edbcf	-0.046596345
247	0xbd9cac20	-0.07650018
248	0xbd8360a5	-0.06414918
249	0x3a95e601	0.0011436344
250	0x3d5d7caf	0.054073986
251	0x3cc8e169	0.024521546
252	0xbd40db4c	-0.047084138
253	0x3c98a265	0.018632123
254	0x3d80d383	0.06290343
255	0x3d97c858	0.074112594

conv2_1.bias f4 [16]
0	0xbd643eb0	-0.055723846
1	0xbd0d506b	-0.03450052
2	0xbe0406e7	-0.12893258
3	0x3dd5cbde	0.10439275
4	0xbd361307	-0.04445174
5	0x3d220639	0.039556716
6	0x3e3e2b78	0.1857127
7	0xbdc30403	-0.095222495
8	0x3d851fa2	0.06500174
9	0x3d055b94	0.03255804
10	0x3deb5730	0.11491239
11	0xbd90859b	-0.07056733
12	0x3e23c925	0.159947
13	0x3e4aa4b4	0.19789392
14	0x3d485637	0.048910346
15	0x3dd895ea	0.10575469

conv2_2.weight f4 [16, 16, 3, 3]
0	0x3cf095b2	0.029368255
1	0x3ce6bb0c	0.028165363
2	0x3cd60530	0.02612552
3	0x3da5577b	0.08073326
4	0xbd144e43	-0.03620745
5	0x3d7f1034	0.062271312
6	0x3ddc07c8	0.10743672
7	0x3d96c8ca	0.07362516
8	0x3e163c82	0.1467152
9	0xba2efd09	-0.00066752784
10	0x3d9055b6	0.07047598
11	0x3d4e1cae	0.05032032
12	0x3da00838	0.078140676
13	0x3da97c3b	0.08275648
14	0x3dced19b	0.10098573
15	0x3d91b732	0.0711502
16	0x3c6ff307	0.014645345
17	0x3d768de7	0.060193922
18	0x38611ed5	5.3672895e-05
19	0x3dacebb8	0.08443397
20	0x3da4552c	0.08024058
21	0x3cac5cb6	0.021040302
22	0xbcf28d8a	-0.029608507
23	0x3e197016	0.14984164
24	0x3cd92b27	0.026509834
25	0x3dddea32	0.10835685
26	0x3bda7d54	0.0066677723
27	0xbd4aa704	-0.049475685
28	0x3d2fd239	0.042925093
29	0xbdbfa32b	-0.09357294
30	0x3d4767e4	0.048683062
31	0xbd1a2e8b	-0.037642043
32	0x3cb5b56f	0.02218124
33	0xbca8ea8d	-0.020619655
34	0xbcbe5087	-0.023231758
35	0xbca1a136	-0.019730192
36	0x3dcbcbf5	0.09951011
37	0x3e0b5254	0.13605624
38	0x3db8c32b	0.090216
39	0x3cf700a0	0.030151665
40	0xbc292744	-0.010324303
41	0x3d4054ff	0.04695606
42	0xbb2fafc3	-0.0026807643
43	0x3dca4570	0.098765254
44	0x3bdec751	0.0067986627
45	0x3d1937c6	0.037406705
46	0xbcf86e9b	-0.030326178
47	0xbc77430a	-0.015091667
48	0xba545a2a	-0.00081005937
49	0x3dab9901	0.083787926
50	0x3b74c201	0.003734708
51	0x3cd6f81d	0.026241357
52	0xbb1a9a77	-0.0023590603
53	0xbd0a7659	-0.03380427
54	0x3d3601f9	0.044435475
55	0x3d61d2bb	0.05513261
56	0xbc9f014b	-0.019409796
57	0x3d5b98c5	0.05361249
58	0x3dca8fbe	0.09890698
59	0xb99aa036	-0.00029492535
60	0x3e2d0691	0.16897036
61	0x3c7249a3	0.014788064
62	0xbdccdec2	-0.10003425
63	0xbc425684	-0.011861447
64	0xbe10f3b3	-0.14155464
65	0xbe6045ae	-0.2190158
66	0xbd6c7ccb	-0.0577362
67	0xbda4bd13	-0.080438755
68	0xbd112f89	-0.035445724
69	0x3d97830e	0.073980436
70	0x3d99d0eb	0.07510551
71	0xbd6a74e8	-0.057240397
72	0x3ca5f7dc	0.02025979
73	0x3c9532a9	0.018212633
74	0x3e05a534	0.13051301
75	0x3d6358be	0.055504553
76	0x3ca76ebc	0.020438544
77	0x3a877556	0.0010334651
78	0x3c966e36	0.0183631
79	0x3d2541ac	0.040345833
80	0x3c884b05	0.016637335
81	0xbd643971	-0.055718843
82	0x3cb0c192	0.021576677
83	0xbdc8e499	-0.098092265
84	0xbd849afd	-0.06474874
85	0x3d5d632a	0.05404965
86	0x3c0a9b6a	0.008459905
87	0xbd463aee	-0.048396043
88	0x3a9b61f3	0.0011854753
89	0xbdb82b88	-0.08992678
90	0x3e011e1b	0.1260914
91	0x3e0f2725	0.13979776
92	0x3da49bc8	0.080375254
93	0xbceb62d2	-0.028733645
94	0x3d4520a6	0.04812684
95	0xbd79c303	-0.060976993
96	0xbd6a4586	-0.05719521
97	0xbc290741	-0.010316671
98	0xbdcfec34	-0.10152474
99	0x3d9397b2	0.07206668
100	0x3d180c01	0.037120823
101	0x3d7bffa4	0.061523095
102	0x3d277d23	0.040890824
103	0xbda5b102	-0.08090402
104	0x3d665f8c	0.056243464
105	0x3cd327e9	0.025775867
106	0xbd66cb32	-0.056346126
107	0x3d22eeba	0.03977845
108	0xbd829637	-0.063763075
109	0xbc5c774d	-0.013456178
110	0xbc893e49	-0.016753333
111	0x3d183cab	0.037167232
112	0xbde7288b	-0.1128703
113	0xbd7af856	-0.061271988
114	0xbdc2ef28	-0.09518272
115	0xbd9beb27	-0.07613211
116	0x3c3bd60b	0.011464606
117	0x3c30c564	0.010789249
118	0xbb9feeea	-0.0048807757
119	0x3da39cb4	0.07988873
120	0xbd95e592	-0.07319178
121	0xbd2d3439	-0.04228613
122	0x3c20a2c5	0.009804432
123	0xbdd9984d	-0.10624752
124	0xbc4935c6	-0.012280887
125	0xbd4ba4e7	-0.04971781
126	0x3d14063c	0.036138758
127	0x3d4418a7	0.047875073
128	0xbcf24b42	-0.029576901
129	0x3da154d6	0.07877509
130	0x3d146254	0.036226586
131	0x3d1777da	0.036979534
132	0x3b51c5fa	0.0032008872
133	0xbd069f28	-0.032866627
134	0xbc95c058	-0.018280193
135	0x3df0563a	0.117351964
136	0x3e070f81	0.13189508
137	0xbba2aab2	-0.004964196
138	0x3de156ec	0.11002907
139	0x3c29e4e7	0.010369516
140	0xbc299aaf	-0.010351821
141	0x3be35dda	0.006938678
142	0xbc8830e1	-0.01662487
143	0x3db7769b	0.08958169
144	0xbdaf4171	-0.08557404
145	0x3d676db9	0.056501124
146	0x3da98800	0.08277893
147	0xbd827f94	-0.0637199
148	0xbc2b7b28	-0.010466374
149	0x3d5d1b93	0.053981375
150	0x3bd25e2e	0.0064199185
151	0x3dc75e11	0.097347386
152	0x3dc71178	0.09720129
153	0x3d176cb8	0.036968917
154	0xbd86c5e9	-0.06580717
155	0xbd6be0b5	-0.057587344
156	0x3d1e2ac4	0.038615003
157	0x3d31300d	0.043258715
158	0x3d9ad3f1	0.07559956
159	0xbd497a4a	-0.04918889
160	0xbd831585	-0.06400589
161	0xbcb41e96	-0.02198724
162	0xbded7bb0	-0.11595857
163	0xbd54db28	-0.051966816
164	0xbdf435ce	-0.11924325
165	0x3e0bffe1	0.13671829
166	0x3c895b3f	0.016767142
167	0xbe5a8c40	-0.21342564
168	0x3d1ed511	0.038777415
169	0xbdfb30fa	-0.12265201
170	0xbe55b19f	-0.20868538
171	0xbd1883e4	-0.037235156
172	0x3cf3c7db	0.029758384
173	0x3bc0d759	0.0058850464
174	0xbd27b28f	-0.04094177
175	0x3dc02b95	0.093833126
176	0x3d23cf55	0.03999265
177	0x3d0e9ee1	0.034819487
178	0x3d8955f9	0.06705851
179	0x3c24d587	0.0100606745
180	0xbda989c3	-0.08278229
181	0xbce0ef03	-0.02745772
182	0xbe18ead8	-0.14933336
183	0xbd960619	-0.07325382
184	0xbe3d37b3	-0.18478279
185	0xbe338b30	-0.17533565
186	0xbc18d385	-0.009327774
187	0x3bea3cbe	0.0071483543
188	0xbd13266b	-0.03592531
189	0xbd804996	-0.062640354
190	0xbe2b5856	-0.16732916
191	0xbde4d44a	-0.111733034
192	0xbdbdd4b0	-0.092690825
193	0xbd20c63c	-0.03925155
194	0x3c74f880	0.014951825
195	0x3d8c6dae	0.06856857
196	0x3d2b149d	0.041767705
197	0x3d76a7e8	0.06021872
198	0x3d541c9b	0.051785093
199	0xba59036f	-0.0008278405
200	0xbd4bce7e	-0.049757473
201	0xbd4ca368	-0.049960524
202	0xbcd873d1	-0.026422413
203	0x3b87eea5	0.0041483217
204	0x3dcb0ef5	0.09914962
205	0x3dc8b108	0.09799391
206	0x3dac8e5b	0.0842559
207	0xbcf7343e	-0.030176278
208	0x3a291d6a	0.00064512214
209	0xbd772f86	-0.060348056
210	0x3bcfdfec	0.0063438322
211	0xbda84504	-0.08216289
212	0x3d3781b0	0.044801414
213	0xbda5b670	-0.08091438
214	0xbccb5a05	-0.024823198
215	0xbc2c15d8	-0.010503255
216	0xbe45f680	-0.19332314
217	0xbd582905	-0.052773494
218	0xbc0f02af	-0.008728667
219	0xbd6181ce	-0.055055432
220	0xbd96dc31	-0.07366217
221	0x3d157fd7	0.03649887
222	0xbc2b3689	-0.010450014
223	0x3d040b4a	0.03223733
224	0x3de8a04f	0.113587014
225	0x3cd877a1	0.026424231
226	0x3db23a63	0.08702543
227	0x3dbaa824	0.091141015
228	0x3d5a5c6d	0.0533108
229	0x3d0f5198	0.034989923
230	0xbcf18275	-0.029481152
231	0xbd1444e2	-0.036198504
232	0xbd5e57d2	-0.05428297
233	0x3cafa2d8	0.021439955
234	0xbd3bd4d0	-0.04585725
235	0xbe04176f	-0.12899564
236	0xbe2bd4b4	-0.16780359
237	0xbd510b41	-0.051036123
238	0x3c11909a	0.008884573
239	0xbcb598f5	-0.022167662
240	0x3dd001e6	0.10156612
241	0x3e4a5d9c	0.19762272
242	0x3e2fce5d	0.17168565
243	0xbd750eb1	-0.059828464
244	0xbe3da23d	-0.1851892
245	0xbd66abfc	-0.05631636
246	0xbd42e41a	-0.047580816
247	0xbd303df2	-0.043027826
248	0xbd44c71b	-0.048041444
249	0xbcca578d	-0.02469995
250	0x3d328e55	0.04359277
251	0x3d7f300f	0.06230169
252	0x3cad99b7	0.021191461
253	0xbd4881a1	-0.04895175
254	0x3b57bf14	0.0032920288
255	0x3cef4789	0.029208915

conv2_2.bias f4 [16]
0	0x3d915acf	0.070973985
1	0x3e06338e	0.13105604
2	0x3d966a42	0.07344486
3	0x3e19e52e	0.15028831
4	0x3d98ea9d	0.07466624
5	0xbc9ed8cc	-0.019390486
6	0xbe166f3f	-0.14690875
7	0x3c9d4a27	0.019200398
8	0xbda6c752	-0.08143486
9	0xbd81384d	-0.06309567
10	0x3ab73c85	0.0013979828
11	0xbb8f443c	-0.004372148
12	0xbd44dc3e	-0.0480616
13	0x3e1756ea	0.14779249
14	0x3d7c448b	0.061588805
15	0x3e5d1987	0.21591769

conv3_1.weight f4 [24, 16, 3, 3]
0	0x3e13124f	0.14362453
1	0x3dbe1b1f	0.09282517
2	0x3d374ad7	0.044749107
3	0x3dca36c6	0.098737285
4	0xbc7bac56	-0.015360912
5	0x3cedf8bb	0.029049268
6	0x3d4ad09b	0.049515348
7	0xbc302797	-0.010751626
8	0x3c9c7c90	0.019102365
9	0xbe0828e5	-0.1329685
10	0xbd8a3ca3	-0.06749847
11	0xbd4813ac	-0.048846886
12	0xbd9fcb24	-0.07802418
13	0x3d180a10	0.03711897
14	0xbdbdb2b6	-0.09262602
15	0x3cf6f364	0.030145355
16	0x3c65525c	0.013996687
17	0x3b3da648	0.0028938223
18	0xbd44b5fa	-0.04802511
19	0x3c649514	0.013951559
20	0x3de5ac8b	0.112145506
21	0xbd22c049	-0.03973416
22	0xbd8c1d7c	-0.06841561
23	0x3b702247	0.0036641525
24	0x3d0ea235	0.03482266
25	0xbda7b24a	-0.08188303
26	0xbd3ee69c	-0.046606645
27	0xba1d520d	-0.0006001301
28	0xbb66d8ae	-0.0035224366
29	0xbd211efa	-0.039336182
30	0x3d9eaf27	0.077482514
31	0x3c401e28	0.01172594
32	0x3cfca61a	0.030840922
33	0x3ca35755	0.019939104
34	0x3ddafc5b	0.10692664
35	0x3d1430b2	0.036179252
36	0x3d09b592	0.033620425
37	0x3d8c7fcf	0.06860315
38	0x3c7dd6fe	0.015493153
39	0xbd3b00c0	-0.045655012
40	0x3aabe3be	0.0013114137
41	0xbd07c6e4	-0.03314866
42	0xbc5e5fb1	-0.013572619
43	0xbe064509	-0.13112272
44	0xbde67959	-0.11253614
45	0xbda3fd38	-0.08007282
46	0x3c375403	0.011189464
47	0x3c9ef7ed	0.01940533
48	0xbdef3e5b	-0.11681815
49	0xbe04e5ba	-0.12978259
50	0xbd2d3a61	-0.042292003
51	0xbd78aaed	-0.060709883
52	0xbd98685b	-0.07441779
53	0xbd395603	-0.045248043
54	0xbd04ab0d	-0.03238969
55	0x3d3f98fe	0.046776764
56	0x3db7e9bd	0.08980129
57	0x3d3af97a	0.045648076
58	0xbc65f150	-0.014034584
59	0xbd5ad5bb	-0.053426486
60	0x3ca3093d	0.019901866
61	0x3c2a8a06	0.010408884
62	0x3da21b41	0.079153545
63	0xbcc20cbc	-0.023687713
64	0x3d9f9522	0.07792117
65	0x3daadd56	0.08342998
66	0x3dffc297	0.12488287
67	0x3bbdb232	0.005789065
68	0xbd877cdb	-0.06615611
69	0x3d2114a3	0.03932632
70	0xbdb601ad	-0.088870384
71	0xbd03633d	-0.032077063
72	0xbba09d48	-0.004901562
73	0xbd6f1c95	-0.058376867
74	0x3d26cbf3	0.040721845
75	0xbbff5cd2	-0.0077930475
76	0xbcc8d5f1	-0.024516078
77	0x3d8f1c5c	0.06987831
78	0x3b7996d3	0.0038084283
79	0xbc6ad527	-0.014333046
80	0xbcfb6138	-0.030686006
81	0xbcf85689	-0.0303147
82	0x3df25f56	0.1183459
83	0x3de2085f	0.11036753
84	0xbc13cbb6	-0.009020736
85	0xbd271c64	-0.04079856
86	0x3dc53211	0.0962869
87	0xbd37cc79	-0.044872735
88	0x3c82fe43	0.015990382
89	0xbd997fcd	-0.07495079
90	0xbdbb7fb6	-0.09155218
91	0xbdc04987	-0.09389024
92	0x3d178bf1	0.036998693
93	0x3d479948	0.048730165
94	0xbc298803	-0.010347369
95	0xbd470b7a	-0.04859493
96	0xbc4eb8b1	-0.012617276
97	0xbd4450c6	-0.047928594
98	0x3c0d87cd	0.008638334
99	0xbdf0eaa6	-0.11763506
100	0xbdb3509c	-0.087556094
101	0x3bf711d6	0.007539968
102	0xbd745c54	-0.059658363
103	0x3d1861b1	0.03720254
104	0xbc431f03	-0.011909249
105	0x3cdca104	0.026932247
106	0xbd87e824	-0.06636074
107	0xbcef90ee	-0.029243913
108	0xbe339322	-0.17536595
109	0xbdbbf6cd	-0.09177933
110	0xbb858f02	-0.0040758858
111	0xbc405eab	-0.011741321
112	0xbe3429c5	-0.17594059
113	0xbddab934	-0.10679856
114	0x3c8b91ad	0.017037237
115	0xbdb36bfd	-0.087608315
116	0xbd5b4fbf	-0.05354285
117	0xbd1e3a15	-0.03862961
118	0x3e01e91a	0.12686577
119	0x3dc09d6b	0.09405025
120	0x3d727c99	0.059200857
121	0x3d4c566b	0.049887102
122	0x3d9a9756	0.07548396
123	0xbbbcbe95	-0.005760024
124	0x3dd1e998	0.102496326
125	0x3bcde9d7	0.0062839794
126	0x3dc31ad4	0.095266014
127	0x3dfb3054	0.12265077
128	0x3d10f07e	0.0353856
129	0x3de213e5	0.11038951
130	0x3a4bb9d6	0.0007771527
131	0xbd1b3b61	-0.037898425
132	0xbe3f77ee	-0.18698093
133	0xbe94aad4	-0.29036582
134	0xbe11c527	-0.14235364
135	0xbd239bb0	-0.039943397
136	0x3d8ff4b2	0.07029094
137	0x3d96f5f3	0.0737113
138	0xbc96406a	-0.018341262
139	0x3ddaad6f	0.10677611
140	0x3ddb8b62	0.107199445
141	0xbd117f02	-0.035521515
142	0x3cf86a14	0.03032402
143	0xbc27ac52	-0.010233955
144	0x3d446647	0.0479491
145	0xbc323d68	-0.010878898
146	0x3c910426	0.017702173
147	0x3ce6246d	0.028093541
148	0xbca6fa8f	-0.020383148
149	0xbd8b1700	-0.06791496
150	0xbd4ee497	-0.05051097
151	0x3c53784d	0.0129071
152	0xbdd72360	-0.10504794
153	0x3d2c1c0a	0.042018928
154	0x3d66ca82	0.05634547
155	0xbd8eea77	-0.06978314
156	0x3d4af2f4	0.049548104
157	0xbbc3505e	-0.0059605082
158	0xbd772d67	-0.060346033
159	0x3d9dfcbe	0.07714222
160	0xbd08a273	-0.03335805
161	0xb8852f63	-6.350761e-05
162	0xba073453	-0.0005157638
163	0xbe138ec6	-0.14409932
164	0xbd28e3f6	-0.041233025
165	0x3c7bc8fe	0.0153677445
166	0xbcbf9d3f	-0.02339041
167	0x3d72e743	0.05930258
168	0x3cb9a20b	0.022660276
169	0x3d28dafe	0.041224472
170	0x3d9a9a74	0.07548991
171	0xbbe7e1cb	-0.007076477
172	0xbd23d524	-0.03999819
173	0xbd11c573	-0.035588693
174	0x3d76ee5f	0.060285922
175	0x3d35d0cf	0.04438859
176	0x3c2e2e3d	0.010631141
177	0xbc9221b9	-0.017838346
178	0xbd47624a	-0.04867772
179	0xbc18f04f	-0.009334638
180	0xbd0a06bb	-0.033697825
181	0xbe21a118	-0.15784109
182	0xbcbd9a47	-0.023144854
183	0x3d1986eb	0.037482183
184	0xbd8554d6	-0.06510322
185	0x3d74f2fa	0.059802033
186	0x3d284e3a	0.041090228
187	0x3dd93e3b	0.10607573
188	0x3e076443	0.1322184
189	0x3d9fa174	0.077944666
190	0x3df31ccd	0.11870728
191	0x3dd0d51c	0.101968974
192	0x3d25cdcf	0.040479477
193	0xbd9bdc6a	-0.076104
194	0x3d943698	0.072369754
195	0x3d1ee761	0.03879488
196	0x3d13b8fa	0.03606508
197	0x3d40962d	0.04701822
198	0xbd04a0fc	-0.03238009
199	0xbd6ed4f4	-0.058308557
200	0xbccd401f	-0.02505499
201	0xbbbeb955	-0.005820433
202	0x3d062915	0.032754023
203	0xbd751241	-0.05983186
204	0x3d2f6664	0.042822257
205	0xbdf25b28	-0.11833793
206	0xbcb33d0c	-0.021879695
207	0xbb848a8d	-0.004044837
208	0x3d3aed43	0.045636427
209	0x3e50c440	0.20387363
210	0x3dc381cd	0.09546242
211	0x3bea8be3	0.007157789
212	0x3e2146e1	0.15749694
213	0xbc95649d	-0.018236453
214	0x3dd1cfb4	0.10244694
215	0x3e240dfd	0.16020961
216	0x3d621c66	0.055202864
217	0x3d87e22f	0.06634938
218	0x3dd4ef79	0.10397238
219	0x3db06ef0	0.0861491
220	0x3da7f26e	0.08200537
221	0x3df8a8e7	0.121415906
222	0xbd338d28	-0.04383579
223	0xbd217c01	-0.0394249
224	0x3da75ef4	0.08172408
225	0x3d9c3031	0.07626379
226	0x3d7898ef	0.060692724
227	0xbdb270a4	-0.08712891
228	0xbc29c131	-0.010361002
229	0x3d7d82a1	0.061892156
230	0xbde08e12	-0.10964598
231	0x3d182341	0.037142996
232	0x3c97bb4c	0.018521927
233	0xbc87dfc1	-0.016586186
234	0x3d235ef4	0.039885476
235	0xbb0b98d7	-0.0021300816
236	0xbd708a4b	-0.058725636
237	0x3ce7381d	0.028225
238	0xbc559e2c	-0.013038199
239	0xbd562048	-0.05227688
240	0xbc20b73d	-0.009809312
241	0x3cc20d93	0.023688113
242	0xbd9c5550	-0.076334596
243	0x3d9e40d9	0.077272125
244	0x3d39d442	0.04536844
245	0x3bb1d85b	0.005427403
246	0xbd90d832	-0.07072486
247	0xbb4c4f7f	-0.0031175313
248	0xbd83f65c	-0.06443474
249	0xbce1f22b	-0.027581295
250	0xbbde21d9	-0.0067789373
251	0x3d41eb52	0.04734356
252	0xbb058b1e	-0.002037711
253	0x3dde25c1	0.10847045
254	0x3e609a3f	0.2193384
255	0x3da91ecf	0.082578294

conv3_1.bias f4 [24]
0	0x3d16ffac	0.03686492
1	0xbc928aa2	-0.01788837
2	0x3e2451a2	0.16046765
3	0x3e65d11a	0.22443047
4	0x3de6bfbc	0.11267039
5	0xbd110b27	-0.035411026
6	0xbd3e6ab3	-0.046488475
7	0x3d45e5a5	0.04831471
8	0xbdb35b9a	-0.08757706
9	0x3e35deb6	0.17760739
10	0xbd680539	-0.056645606
11	0x3d2c0856	0.042000137
12	0x3d60035d	0.054690707
13	0x3c8f5d2b	0.01750048
14	0x3dabe91b	0.08394071
15	0xbc2201c7	-0.009888119
16	0x3d9dc5db	0.077037536
17	0xbdbd629b	-0.09247323
18	0x3db038c5	0.08604578
19	0xbc986ecc	-0.01860752
20	0xbc45471e	-0.012040881
21	0x3dac65d0	0.08417857
22	0x3d86dce3	0.065850995
23	0x3ded9274	0.11600199

conv3_2.weight f4 [24, 24, 3, 3]
0	0x3db931ce	0.090427026
1	0xbca04bbc	-0.019567363
2	0x3d7545af	0.05988091
3	0x3d285c64	0.041103736
4	0x3dabf0ab	0.08395513
5	0x3c9eb502	0.01937342
6	0x3e06490f	0.13113807
7	0x3d9ca3b6	0.07648413
8	0xbd50a109	-0.050934825
9	0x3d1d93b6	0.038470946
10	0xbd021ead	-0.031767536
11	0x3b5d0363	0.0033723942
12	0x3d2c5974	0.042077497
13	0x3ce7d83f	0.028301356
14	0xbd1c5f33	-0.038176727
15	0x3d4c531c	0.049883947
16	0xbcf1b645	-0.029505858
17	0xbcefc89b	-0.02927046
18	0x3cb59b85	0.022168884
19	0xbc48c555	-0.012254079
20	0xbcb052f4	-0.02152393
21	0x3d394bb0	0.045238197
22	0xbd6e6212	-0.058198996
23	0xbb3a1885	-0.0028395962
24	0xbd216970	-0.039407194
25	0xbdcab252	-0.09897293
26	0xbda0351f	-0.07822632
27	0xbd6a5741	-0.057212118
28	0xbd09eaca	-0.033671178
29	0xbd8c609d	-0.06854365
30	0xbc48b754	-0.01225074
31	0xbd290fa5	-0.041274685
32	0x3c3b566d	0.01143418
33	0xbc0d19a0	-0.0086120665
34	0x3c257c40	0.010100424
35	0x3cfcef27	0.030875755
36	0xbcd2e511	-0.025743993
37	0x3d102618	0.03519258
38	0xbca1e2f4	-0.01976154
39	0xbd010f1f	-0.03150856
40	0x3d415256	0.047197662
41	0xbd1a7787	-0.037711646
42	0xbce798fe	-0.028271195
43	0x3c8c13a4	0.01709921
44	0x3d00f2ae	0.031481437
45	0x3cc81378	0.024423346
46	0xbd9219cd	-0.07133827
47	0xbd24bd1c	-0.04021941
48	0xbd992073	-0.07476892
49	0x3cd0e1a0	0.025498211
50	0xbd6da4f2	-0.058018632
51	0xbb6871ee	-0.0035468298
52	0xbe023d04	-0.12718588
53	0xbdba1860	-0.090866804
54	0x3db6bd0b	0.08922776
55	0x3b8783a7	0.004135567
56	0xbc6ba568	-0.014382698
57	0x3daddcb2	0.0848936
58	0x3d0540ff	0.03253269
59	0x3d6c4718	0.057684988
60	0x3d4908bf	0.049080607
61	0x3cd4f28f	0.025994567
62	0x3d6ae81b	0.05735026
63	0xbc93507d	-0.017982716
64	0x3d4bd4a9	0.049763355
65	0xbd1051ba	-0.03523419
66	0xbd28a8af	-0.041176494
67	0xbd914ab9	-0.0709433
68	0x3c4bbff8	0.012435906
69	0xbcda84ea	-0.026674706
70	0xbd4d2bbe	-0.050090544
71	0xbdd3d0ea	-0.103425816
72	0xbceb94f7	-0.028757555
73	0xbd5f62ba	-0.054537512
74	0xbdbf533c	-0.093420476
75	0xbd11143a	-0.03541968
76	0xbd5c2937	-0.053750243
77	0xbb63dd9f	-0.0034769548
78	0x3d694ca8	0.05695787
79	0x3bbd2739	0.005772498
80	0x3d4f862a	0.05066506
81	0x3cc0e9fb	0.02354907
82	0xbd827b5b	-0.063711844
83	0x3d4ecc07	0.050487544
84	0xbc937bfa	-0.018003453
85	0x3cec2fb2	0.028831337
86	0xbca4dad4	-0.020123877
87	0x3b369867	0.0027861835
88	0x3baa2966	0.0051929234
89	0xbc33edaa	-0.0109819565
90	0xbd4148de	-0.047188632
91	0x3d8447cb	0.06459006
92	0x3da10027	0.07861357
93	0xbd0d30d7	-0.034470405
94	0xbd63130a	-0.05543808
95	0x3d5ba554	0.053624466
96	0xbcf2cd66	-0.029638957
97	0xbd913a28	-0.070911705
98	0x3d066772	0.032813497
99	0xbdfbcb8a	-0.12294681
100	0xbd5791ac	-0.052629158
101	0xbe22b16c	-0.15887994
102	0xbdd8d387	-0.10587221
103	0xbda1bdc3	-0.07897522
104	0xbdfdb239	-0.12387509
105	0x3d035096	0.032059275
106	0xbbccfc07	-0.00625563
107	0xbd7ad69b	-0.06123982
108	0x3dc15da1	0.094416864
109	0x3ca1b881	0.019741299
110	0x3d088e83	0.033339035
111	0x3de1785c	0.11009285
112	0xbb865708	-0.0040997304
113	0x3d73dcc1	0.0595367
114	0x3ceac712	0.028659377
115	0x3ca14b92	0.019689355
116	0xbd790ad8	-0.060801357
117	0x3b9d6f72	0.004804545
118	0x3ddd4e64	0.108059675
119	0x3d394f66	0.045241736
120	0x3d6b3cb0	0.057430923
121	0x3ca5539f	0.020181475
122	0x3dc0e973	0.09419527
123	0xbcd06b16	-0.025441688
124	0x3d90e271	0.0707444
125	0x3a9f37e3	0.0012147393
126	0x3d40526c	0.046953604
127	0xbd105dc4	-0.035245672
128	0x3d376ba8	0.044780403
129	0xbda2222a	-0.079166725
130	0xbd838214	-0.06421295
131	0xbd0f7aec	-0.035029337
132	0xbcff8f08	-0.031196132
133	0xbd426966	-0.047463797
134	0xbd6b62d3	-0.057467293
135	0x3d557736	0.05211564
136	0xbd031cf7	-0.032010045
137	0xbd88d452	-0.06681122
138	0x3d6d34ce	0.057911687
139	0x3ccad7a7	0.024761034
140	0xbc93ec12	-0.018056903
141	0x3ceb18b7	0.028698308
142	0xbbb48d1e	-0.0055099865
143	0xbdf55183	-0.11978438
144	0x3d029112	0.03187663
145	0x3c113006	0.008861547
146	0xbc5cb28b	-0.013470302
147	0xbc56dee2	-0.013114663
148	0xbcd06572	-0.025438998
149	0x3d797597	0.060903158
150	0x3cbaed53	0.022818243
151	0xbd07bd69	-0.03313962
152	0xbdd6adfa	-0.10482402
153	0xbcb8076a	-0.022464473
154	0x3cc85b84	0.0244577
155	0xbcac2df9	-0.021018015
156	0x3d06deb5	0.032927234
157	0xbcbeac02	-0.02327538
158	0xbd47cb95	-0.048778135
159	0x3d53735e	0.051623695
160	0xbdca8c17	-0.09890001
161	0xbce73471	-0.028223248
162	0xbd78ac82	-0.06071139
163	0xbcecdd98	-0.028914258
164	0x3d3c4bab	0.0459706
165	0xbcee8904	-0.029118069
166	0x3c84e1fc	0.016221039
167	0x3d5c0e56	0.05372461
168	0xbd26716a	-0.040635504
169	0x3d3ce36e	0.04611533
170	0x3c5b3f4d	0.013381791
171	0x3d6996d6	0.057028614
172	0x3cdec461	0.02719325
173	0x3cd4d1a6	0.025978874
174	0x3d21bf93	0.03948934
175	0xbd686115	-0.05673321
176	0x3d3cb908	0.046074897
177	0xbced940e	-0.029001262
178	0x3cbd9f04	0.023147114
179	0xbc19931e	-0.009373454
180	0xbd00e620	-0.031469464
181	0xbced0022	-0.028930727
182	0x3c9dde30	0.019270986
183	0x3c1fe53a	0.009759242
184	0xb955608e	-0.00020349232
185	0x3d22a0fc	0.039704308
186	0x3cbf408f	0.023346214
187	0x3d362022	0.044464238
188	0x3993f8bc	0.00028223346
189	0x3d38c8e3	0.045113456
190	0x3cef4491	0.0292075
191	0xbd0a087a	-0.03369949
192	0x3c52f2fe	0.012875317
193	0xbd15d158	-0.0365766
194	0xbdad31f2	-0.08456792
195	0x3d969d0c	0.07354173
196	0xbbb7f604	-0.005614044
197	0x3d97f231	0.07419241
198	0x3dc57726	0.096418664
199	0xbd7b0ee4	-0.061293498
200	0x3d94b4ac	0.07261023
201	0x3d1a6790	0.03769642
202	0x3d384a6d	0.044992853
203	0x3bfa15df	0.007632002
204	0xbcc5c437	-0.024141414
205	0xbb17db4a	-0.0023171478
206	0x3c3a8632	0.011384534
207	0xbdb1ec0a	-0.08687599
208	0x3d4f96c9	0.05068091
209	0x3a88ad3e	0.0010427607
210	0xbd8f28ec	-0.06990227
211	0xbcf8bd8e	-0.030363824
212	0x3d8a835a	0.067633346
213	0xbc7704fc	-0.015076872
214	0x3d4aabed	0.049480367
215	0x3c7ea198	0.015541457
216	0x3d13a6b0	0.036047637
217	0x3b3e528d	0.0029040903
218	0x3d475826	0.04866805
219	0xbc738ef6	-0.0148656275
220	0x3c840f5c	0.016120605
221	0x3d7791bd	0.06044172
222	0x3db4422d	0.088016845
223	0x3c1b934d	0.009495568
224	0x3bd5c64e	0.006523884
225	0x3b7d8b80	0.0038687885
226	0xbdbcd8ba	-0.09221025
227	0xbe24b7c7	-0.1608573
228	0xbda72b97	-0.08162611
229	0xbd466a25	-0.04844107
230	0xbdf5a1b9	-0.11993737
231	0xbc9627c0	-0.018329501
232	0xbd955a34	-0.072925955
233	0xbc989d12	-0.018629584
234	0x3d96a4f0	0.07355678
235	0xbd1a89d6	-0.037729107
236	0xbd0be4e2	-0.034153827
237	0xbce8d860	-0.028423488
238	0x3d2bdf84	0.041961208
239	0xbd4d52b6	-0.050127707
240	0x3d127bde	0.03576266
241	0xbc356cfa	-0.011073345
242	0xbd440a83	-0.047861587
243	0xbc149927	-0.0090697175
244	0x3c7c42c6	0.015396779
245	0xbd025540	-0.031819582
246	0xbcea78e9	-0.028622108
247	0x3b4a1e78	0.0030840915
248	0x3df0fad1	0.117665894
249	0x3db7043f	0.08936357
250	0x3d99e7dd	0.075149275
251	0x3cae140d	0.021249795
252	0x3d8366a9	0.06416065
253	0xbd438120	-0.047730565
254	0x3c56b7c5	0.0131053375
255	0x3d567d3e	0.052365534

conv3_2.bias f4 [24]
0	0x3da44fb4	0.08023015
1	0x3be708df	0.007050618
2	0x3dc0c01c	0.09411642
3	0x3de16d98	0.110072315
4	0x3daa9829	0.083298035
5	0x3d8458c4	0.06462243
6	0xbd1d3a0f	-0.038385447
7	0x3cb787ac	0.02240356
8	0x3e10bb33	0.14133911
9	0xbb1d9625	-0.0024045792
10	0x3dea9546	0.11454253
11	0x3d98bb10	0.07457554
12	0xbd8f8145	-0.07007078
13	0x3d6d5f12	0.057951994
14	0xbd228698	-0.03967914
15	0x3d4b73db	0.049671035
16	0x3dbccc3b	0.09218641
17	0xbda21d35	-0.07915727
18	0x3cd4b8b1	0.025966974
19	0x3d84d56f	0.06486022
20	0x3d15777c	0.036490902
21	0x3bd7242f	0.0065655927
22	0xbd637daf	-0.055539783
23	0x3cd7c7d9	0.026340412

conv4_1.weight f4 [40, 24, 3, 3]
0	0xbcbabb13	-0.022794282
1	0x3cd351ad	0.025795782
2	0x3d4ec6ee	0.050482683
3	0xbd025856	-0.031822525
4	0xbd5cd0e0	-0.053910136
5	0x3d4ed190	0.050492823
6	0x3daaf0ef	0.08346736
7	0x3dc4e543	0.09614041
8	0x3b47a9ac	0.0030466123
9	0x3d1eb62d	0.038747955
10	0xbd708f50	-0.058730423
11	0xbd10b5aa	-0.0353295
12	0x3d907171	0.07052887
13	0xbd72981f	-0.059227105
14	0x3c8a4919	0.016880559
15	0x3bf5c49e	0.0075002452
16	0x3d73c329	0.05951229
17	0xbbcd47ac	-0.0062646475
18	0xbd9312df	-0.07181334
19	0x3b547251	0.003241677
20	0x3da8fff6	0.08251946
21	0xbda81654	-0.08207384
22	0x3d20cff6	0.039260827
23	0x3d82c0c0	0.063844204
24	0xbcd00ed6	-0.0253977
25	0x3d169578	0.03676364
26	0xbd6c9358	-0.057757705
27	0xbc0cff23	-0.008605751
28	0x3dd91447	0.10599571
29	0xbb616c23	-0.003439673
30	0xbd4520b3	-0.048126888
31	0x3d569aff	0.05239391
32	0xbce7cceb	-0.028295955
33	0x3db71e90	0.08941376
34	0x3cea73aa	0.028619606
35	0xbda140d6	-0.078736946
36	0xbc9937f3	-0.018703436
37	0x3dddc7da	0.10829134
38	0xbd910ff4	-0.07083121
39	0xbd4760f0	-0.04867643
40	0x3cbc79bc	0.023007266
41	0x3cad9665	0.021189878
42	0x3bb3f289	0.005491559
43	0x3d15341a	0.03642664
44	0x3d988a52	0.074482575
45	0x3de7b885	0.11314491
46	0xbd5dc098	-0.05413875
47	0xbb62c8bb	-0.0034604508
48	0x3dee6a99	0.11641426
49	0xbc5ab5f1	-0.013349042
50	0xbd14d510	-0.036336005
51	0x3ced8b14	0.028996982
52	0x3ca0b66a	0.019618232
53	0xbd7b04f1	-0.06128401
54	0x3ce9d94e	0.028546002
55	0xb9ce63a6	-0.00039365626
56	0xbd5455b3	-0.05183954
57	0x3d9694a2	0.07352568
58	0x3b87961d	0.004137768
59	0xbca4aef6	-0.02010296
60	0xbd80bac2	-0.06285621
61	0xbd672b43	-0.056437742
62	0x3c05b828	0.008161582
63	0xbdd22d6d	-0.102625705
64	0x3c6b7586	0.0143712815
65	0xbcc86a73	-0.024464821
66	0xbc7a3f79	-0.015273922
67	0x3de2e41c	0.11078665
68	0x3d8dd128	0.06924659
69	0x3b6e5aea	0.0036370107
70	0x3d913920	0.07090974
71	0xbd197123	-0.03746141
72	0xbb0956f9	-0.002095638
73	0x3dd52721	0.10407854
74	0x3c46e237	0.012138895
75	0xbc640f5c	-0.013919678
76	0xbd1e2026	-0.038604878
77	0x3baedd6f	0.0053364555
78	0x3c5b2290	0.01337494
79	0xbaa2edef	-0.0012430529
80	0x3ba1d4f5	0.0049387165
81	0x3d7f6a7d	0.062357415
82	0xbd2cd8e6	-0.042199038
83	0xbd40fa6b	-0.047113817
84	0x3b70cd29	0.0036743379
85	0x3ca42176	0.020035487
86	0xbd073163	-0.033006083
87	0x3dbdad85	0.09261612
88	0xbd2106b9	-0.03931305
89	0x3bc410dc	0.005983455
90	0xbb0b61d1	-0.002126802
91	0xbceed1ca	-0.02915277
92	0xbd516d02	-0.05112935
93	0x3df77b71	0.120840915
94	0xbca8e6d6	-0.020617884
95	0x3d3acaf8	0.045603722
96	0x3ccf100e	0.02527621
97	0x39cf6e0c	0.00039564108
98	0xbd93050f	-0.07178699
99	0xbc8a6ede	-0.016898569
100	0xbdb11ea1	-0.0864842
101	0xbd28ba55	-0.041193325
102	0xbdb4fee1	-0.08837677
103	0xbd93bbd9	-0.072135635
104	0xbd92d673	-0.07169809
105	0xbd9a547b	-0.075356446
106	0x3d88bd21	0.066766985
107	0x3c03d682	0.008046748
108	0xbd47a6f4	-0.048743203
109	0x3d8a4787	0.06751924
110	0xbd400001	-0.046875004
111	0x3c738393	0.014862913
112	0xbd6dca7a	-0.058054425
113	0xbcf451a3	-0.029824084
114	0xbb89df9c	-0.0042075645
115	0xbcddee7e	-0.027091261
116	0x3c5ba138	0.013405137
117	0xbcda85c0	-0.026675105
118	0x3cda7742	0.026668195
119	0x3da832ca	0.08212812
120	0x3db93704	0.090436965
121	0x3cf6be4b	0.030120036
122	0x3da7fe15	0.08202759
123	0xbbcebb8e	-0.0063089794
124	0x3ac39b73	0.0014923647
125	0x3cffde02	0.031233791
126	0x3dca5758	0.09879941
127	0xb9efa0be	-0.00045705395
128	0xbb4da86c	-0.0031380905
129	0xbbd949cc	-0.0066311117
130	0x3d597897	0.05309352
131	0x3d5ddc7e	0.054165356
132	0xbd1a0385	-0.037601013
133	0x3db90154	0.090334564
134	0xbd071b03	-0.032984745
135	0x3c22b233	0.009930181
136	0xbdbd2987	-0.09236436
137	0x3bcfbf30	0.00633993
138	0x3a7dfc42	0.00096887734
139	0xbd86a1aa	-0.06573804
140	0x3db3bc7e	0.087761864
141	0x3b9d1e1b	0.0047948486
142	0x3cc2fbce	0.02380171
143	0x3dee6f2a	0.116422966
144	0xbc4fbdbf	-0.012679516
145	0xbd55dcca	-0.052212514
146	0xbc22456c	-0.009904247
147	0xbd3c457e	-0.04596471
148	0xbd9a2e0a	-0.075283125
149	0xbb06250f	-0.0020468866
150	0x3d698e67	0.05702057
151	0xbca4f9ee	-0.020138707
152	0x3d814d69	0.06313593
153	0xbd06f379	-0.032947037
154	0xbca59eb4	-0.020217277
155	0xbdf96f7e	-0.121794686
156	0x3d649273	0.055803727
157	0xbcc9e284	-0.024644144
158	0xbd7acbd5	-0.061229546
159	0x3cdcb410	0.02694133
160	0x3b95ba5f	0.0045693363
161	0xbc998fa3	-0.01874525
162	0xbced16a0	-0.028941453
163	0xba8d42d8	-0.0010777367
164	0x3d1f65e7	0.03891554
165	0x3db0ebaf	0.08638703
166	0x3d8fd992	0.0702392
167	0x3da64944	0.08119443
168	0x3d5fc28a	0.054628886
169	0xbcc9d91d	-0.02463966
170	0xbd47d969	-0.048791323
171	0x3d42f367	0.047595408
172	0x3d54906b	0.05189554
173	0xbdadee23	-0.084926866
174	0x3c564da7	0.013080037
175	0x3cab0bc9	0.020879643
176	0xbc123d89	-0.008925804
177	0xbcc26fb0	-0.023734897
178	0xbcd5ab26	-0.026082586
179	0x3c3f8894	0.011690278
180	0xbaec76e9	-0.0018040809
181	0x3be7fa01	0.0070793633
182	0x3b85290e	0.004063732
183	0xbd492b6a	-0.04911367
184	0xba2db21e	-0.0006625968
185	0x3d7a4af7	0.06110665
186	0x3d2e74f7	0.042592015
187	0x3c98aade	0.018636163
188	0xbd648b67	-0.055797007
189	0xbdfceb4b	-0.12349566
190	0xbd45b385	-0.048266906
191	0x3c778418	0.015107177
192	0x3c981e64	0.018569179
193	0xbceb2657	-0.028704805
194	0x3d7b6d45	0.061383504
195	0xbd8a1a50	-0.067433
196	0x3cce9516	0.025217574
197	0x3d64bc32	0.05584354
198	0xbdbae411	-0.091255315
199	0xba53c937	-0.00080789946
200	0x3c487ed4	0.012237269
201	0xbda3f62b	-0.08005937
202	0x3d1848b2	0.037178703
203	0xbd03f81c	-0.032219037
204	0xbd549120	-0.051896214
205	0xbc34ab31	-0.011027143
206	0x3bbedd69	0.005824734
207	0x3d81ccfe	0.06337927
208	0xbd562cdc	-0.052288875
209	0xbdddf63e	-0.108379826
210	0xbc3fca24	-0.011705909
211	0xbd2ad0bb	-0.041702967
212	0xbcb502c1	-0.02209604
213	0x3d8bfcfc	0.06835362
214	0x3de4d4b6	0.11173384
215	0xbd016ae5	-0.031596083
216	0xbd6887c8	-0.056770116
217	0xbd827f72	-0.063719645
218	0xbc81cb39	-0.015843974
219	0x3d819086	0.06326394
220	0xbd8a8678	-0.06763929
221	0x3dc19aaa	0.09453328
222	0xbd94dc51	-0.072685845
223	0x3d8a63e3	0.06757333
224	0x3dda5d11	0.10662282
225	0x3d6b3c25	0.057430405
226	0xbb5752cb	-0.0032855745
227	0x3c1cb61a	0.009564901
228	0xbdb37edc	-0.08764431
229	0x3c4fc2c4	0.012680713
230	0xbd4309c1	-0.047616724
231	0xbc8244d2	-0.015901957
232	0x3bf88dff	0.0075852866
233	0xbc817d04	-0.015806682
234	0x3c47248e	0.012154711
235	0x3dc7b083	0.09750464
236	0xbd41344e	-0.047169022
237	0x3dc3e88a	0.09565838
238	0x3dcacfbb	0.09902903
239	0x3d6c58ba	0.057701804
240	0xbd688b55	-0.056773502
241	0xbd0dad39	-0.034589026
242	0xbde6fb21	-0.11278368
243	0x3cf30c37	0.02966891
244	0x3d53a062	0.051666625
245	0xbc6df2c4	-0.014523212
246	0x3bbf784e	0.005843199
247	0x3d5dedf8	0.054182023
248	0x3c4f342f	0.012646719
249	0x3d951827	0.07279997
250	0xbae0a974	-0.0017140345
251	0x3c673a79	0.014113062
252	0x3ce11907	0.027477754
253	0x3caccba6	0.0210932
254	0x3cad3991	0.021145614
255	0x3b88960c	0.0041682776

conv4_1.bias f4 [40]
0	0x3d15f0e0	0.03660667
1	0xbac6b399	-0.0015159725
2	0x3dbc590a	0.0919667
3	0xbd6fe0ed	-0.058564115
4	0xbda2d3c8	-0.0795055
5	0x3d0392a6	0.032122277
6	0x3da324bc	0.07965991
7	0xbda71d65	-0.081599034
8	0xbdd6610f	-0.10467731
9	0x3da27c35	0.07933847
10	0x3cfbca62	0.030736152
11	0xbdaed8af	-0.08537423
12	0xbbc01ef3	-0.0058630644
13	0xbd566cc7	-0.052349832
14	0xbd885a67	-0.06657868
15	0x3d9be01a	0.07611103
16	0xbd9332ed	-0.07187448
17	0x3d68f14e	0.05687075
18	0xbdcc8ad6	-0.09987418
19	0x3d2f9244	0.0428641
20	0x3c5b19db	0.013372864
21	0x3d022bbb	0.031779986
22	0x3dbf178d	0.09330664
23	0x3d919370	0.071081996
24	0xbdabbc17	-0.08385485
25	0x3d55fb61	0.052241687
26	0x3db8fcac	0.09032568
27	0xbd211a24	-0.03933157
28	0x3d6e9136	0.058243953
29	0xbd49a1c3	-0.049226534
30	0x3dace91b	0.08442899
31	0x3dd1c824	0.10243252
32	0x3d802052	0.062561646
33	0x3d45fdc2	0.048337705
34	0x3d3fa71c	0.046790227
35	0xbd79c888	-0.060982257
36	0x3ddb185a	0.10698004
37	0xbcc63d76	-0.024199229
38	0xbcf15df2	-0.029463742
39	0x3d8b12d9	0.06790704

conv4_2.weight f4 [80, 40, 3, 3]
0	0x3d1b87f3	0.03797145
1	0x3d449e94	0.048002794
2	0xbd68be07	-0.05682185
3	0x3d3bd6ee	0.04585927
4	0xbca276ff	-0.019832132
5	0xbd8e88a1	-0.06959654
6	0x3d126f49	0.03575066
7	0xbd3320a8	-0.043732315
8	0x3c7f5c5a	0.015585983
9	0xbd4a626c	-0.04941027
10	0xbd464be2	-0.04841221
11	0xbd420921	-0.047371987
12	0xbb8b88cd	-0.0042582513
13	0xbd76992f	-0.06020468
14	0xbb0c8250	-0.0021439977
15	0xbcdc8bde	-0.026922163
16	0x3b97242a	0.0046124654
17	0xbcd50dfd	-0.026007647
18	0xbd964930	-0.07338178
19	0xbd0d1f1b	-0.034453493
20	0x3b7af0e1	0.0038290548
21	0x3d14fafb	0.036372166
22	0x3d164e04	0.036695495
23	0xbd1bf818	-0.038078398
24	0xbc912387	-0.017717136
25	0x3cf778c4	0.030208953
26	0xbc924b53	-0.017858183
27	0xbd674185	-0.05645897
28	0xbcf788b4	-0.030216552
29	0xbcc2aff1	-0.023765536
30	0xbaaa9705	-0.0013014978
31	0x3cb6cf2b	0.022315582
32	0x3c8c38e5	0.017116973
33	0x3ca7d95c	0.020489387
34	0x3b9baf3b	0.0047511137
35	0xbacc8d47	-0.0015606069
36	0xbc5056cf	-0.012716009
37	0x3cfd61a5	0.03093035
38	0x3ccd4892	0.025059018
39	0x3bae634e	0.0053218966
40	0x3c5507c6	0.013002342
41	0xbca52732	-0.020160291
42	0xbcb26d48	-0.021780625
43	0xbc2b5828	-0.01045803
44	0xbd62ebfa	-0.055400826
45	0x3d1887cf	0.037238892
46	0x3d3b08b2	0.04566259
47	0x3d48c341	0.049014334
48	0x3cebf7ee	0.028804746
49	0xbcae1366	-0.021249484
50	0x3cc358ed	0.023846114
51	0xbd51812f	-0.05114859
52	0x3caadede	0.020858224
53	0xbd350d0b	-0.044201892
54	0x3ca95391	0.02066973
55	0x3d8b6629	0.06806595
56	0xbc11b4ff	-0.0088932505
57	0x3d43926b	0.047747057
58	0xbc18dc54	-0.009329874
59	0x3d968678	0.07349867
60	0x3d1d84e4	0.038456813
61	0x3cfd6c72	0.0309355
62	0x3d0fb51a	0.03508482
63	0xbc62b6c1	-0.013837517
64	0xbcfa1448	-0.030527249
65	0xbcbf9e33	-0.023390865
66	0xbd738bcb	-0.05945949
67	0xbcfe3dc5	-0.031035313
68	0x3c6e6723	0.014550957
69	0xbcbc5e35	-0.02299414
70	0x3d9462c3	0.072454
71	0x3c462850	0.012094572
72	0xbcdf877a	-0.02728628
73	0x3cd0efc8	0.025504962
74	0x3d88fc63	0.06688764
75	0x3c3485bf	0.011018216
76	0xbd2360a2	-0.039887078
77	0x3d451df4	0.04812427
78	0x3d35f12c	0.044419453
79	0x3d005d00	0.03133869
80	0x3cc0d999	0.023541259
81	0xbd4fd598	-0.05074081
82	0x3cbda4a8	0.023149803
83	0xbc59983b	-0.0132809235
84	0xbd3ddf47	-0.046355512
85	0xbc27bc75	-0.010237803
86	0x3cbaf1e6	0.022820424
87	0xbcacbcb0	-0.021086067
88	0x3cf3efb1	0.02977738
89	0xbd290a49	-0.041269574
90	0xbd05575e	-0.032554023
91	0x3d34e68e	0.044165187
92	0xbb5abb28	-0.0033375714
93	0x3d2311f0	0.03981203
94	0x3ce65fc2	0.028121833
95	0x3cbecd54	0.023291267
96	0xbbff09a4	-0.0077831317
97	0x3d46ff52	0.048583336
98	0x3ce4d7b3	0.027934885
99	0xbdb8e248	-0.09027535
100	0xbcc9dbf7	-0.02464102
101	0x3dd51d77	0.104060106
102	0xbe1289d9	-0.14310397
103	0x3c3e97c2	0.011632862
104	0xbd5afec0	-0.053465605
105	0xbbd92932	-0.0066272253
106	0x3da634b6	0.081155226
107	0xbd8fe93a	-0.07026906
108	0xbc7a38bb	-0.015272315
109	0xbc622028	-0.013801612
110	0x3c89b5ac	0.01681026
111	0xbd514443	-0.05109049
112	0xbca55e53	-0.020186579
113	0xbc2349be	-0.009966312
114	0x3c98de13	0.01866058
115	0x3bf45e58	0.0074575357
116	0x3d64c8e0	0.05585563
117	0xbd08542d	-0.0332834
118	0xbb88a1e4	-0.0041696895
119	0xbd319942	-0.04335905
120	0x3c9d1761	0.019176187
121	0xbd39ad31	-0.045331184
122	0x3c007de3	0.007842514
123	0x3bf0bc45	0.007346662
124	0xbc60fe5b	-0.013732518
125	0xbce260ca	-0.027634043
126	0x3c33238c	0.010933768
127	0xbd49568d	-0.049154807
128	0x3cd18f39	0.02558099
129	0x3d356bdc	0.044292316
130	0xbcfe885d	-0.031070882
131	0xbd4b6f24	-0.04966654
132	0xbcb7478b	-0.022372982
133	0xbc034ec9	-0.008014389
134	0x3b74c43d	0.0037348412
135	0xbd106806	-0.035255454
136	0x3bfb86e6	0.0076759933
137	0xbc703c52	-0.014662819
138	0x3bba132c	0.005678555
139	0x3bb76040	0.0055961907
140	0xbcb9ab6e	-0.022664752
141	0x3d6a4ec5	0.057204027
142	0xbd55f220	-0.05223286
143	0xba017d13	-0.0004939597
144	0xbcd669bd	-0.026173467
145	0x3d72add3	0.059247803
146	0x3cbff693	0.023433005
147	0xbcfada3a	-0.030621637
148	0x3c70e21b	0.014702345
149	0x3d139797	0.03603324
150	0x3d34d00a	0.044143714
151	0xbd411602	-0.04714013
152	0x3c277941	0.01022178
153	0xbc81cd4f	-0.01584497
154	0xbd1cc3ad	-0.03827255
155	0x3d544880	0.051826954
156	0x3cf10e84	0.029425867
157	0x3bcb04bd	0.006195633
158	0xbc932037	-0.017959697
159	0xbd764aa3	-0.060129773
160	0xbca93003	-0.020652777
161	0x3ca062c8	0.019578353
162	0x3d3486a4	0.044073716
163	0xbd170150	-0.036866486
164	0xbbf16585	-0.0073668384
165	0xbb340c33	-0.0027473092
166	0xbc92025d	-0.017823393
167	0x3d885b3b	0.06658026
168	0x3c609705	0.013707881
169	0x3d395217	0.045244303
170	0x3c96c4e0	0.018404424
171	0x3cf6cf4d	0.030128146
172	0xbbd472bc	-0.006483404
173	0xbbd1b46c	-0.006399682
174	0x3d013b98	0.031550974
175	0xbd368e6e	-0.044569425
176	0xbd4b0093	-0.049561094
177	0xbd240bfd	-0.040050495
178	0x3d5ea295	0.05435427
179	0x3d051dc3	0.032499086
180	0x3c08c5e6	0.008347964
181	0x39a57f0b	0.00031565907
182	0xbb92551a	-0.0044657113
183	0xbc1abbec	-0.009444218
184	0x3cdc9f56	0.026931446
185	0xbd5eb74c	-0.054374024
186	0x3d301674	0.042990163
187	0x3b0b2597	0.0021232122
188	0xbb49bdad	-0.0030783222
189	0xbb5029ca	-0.003176319
190	0x3c55fc9b	0.013060714
191	0xbc7fc012	-0.015609758
192	0x3cbb68e7	0.02287717
193	0x3d61e622	0.055151112
194	0xbd4a728d	-0.04942565
195	0xbd1a47e8	-0.03766623
196	0x3d7b60c7	0.06137159
197	0xbbb2485a	-0.005440754
198	0x3c2872b6	0.0102812555
199	0x3b92465c	0.004463954
200	0xbc99551c	-0.018717341
201	0x3c803a0d	0.01565268
202	0x3cf384f7	0.029726489
203	0x3c2e296d	0.010629994
204	0x3d35bec1	0.04437137
205	0x3d89aa63	0.06721952
206	0x3c0eff91	0.008727924
207	0xbd1897e0	-0.037254214
208	0x3cb4b44d	0.02205863
209	0xbd35ed21	-0.044415597
210	0x3d1ae011	0.037811343
211	0x3d1cb539	0.038258765
212	0x3c4bb761	0.012433858
213	0x3cb28dcb	0.021796128
214	0x3cfc7e16	0.030821841
215	0x3d0240c7	0.031800058
216	0xbd6a5974	-0.057214215
217	0x3d884761	0.066542394
218	0xbd3bce5e	-0.045851104
219	0xbd2219ac	-0.039575264
220	0x3d9cf20d	0.07663355
221	0xbb78b725	-0.003795096
222	0xbb807169	-0.0039197695
223	0x3d06955f	0.032857295
224	0xbd8c2357	-0.06842678
225	0xbce197d7	-0.027538223
226	0xbb97fda7	-0.004638392
227	0xbccd103f	-0.02503216
228	0x3c2f703b	0.01070791
229	0x3c72e15e	0.01482424
230	0x3d329598	0.043599695
231	0xbca5ab39	-0.020223247
232	0xbd52fc23	-0.051509988
233	0x3d3cd1db	0.04609857
234	0xbd3529e6	-0.04422941
235	0xbbf3f87e	-0.007445394
236	0x3cb0ee57	0.021598024
237	0xbcf7bc9c	-0.030241303
238	0x3c95269e	0.01820689
239	0xbd004877	-0.031319108
240	0x3d17a536	0.03702279
241	0xbc6d6dd0	-0.014491513
242	0xbd4cbd4d	-0.04998522
243	0xbc541773	-0.012945044
244	0x3d8dc9ad	0.06923232
245	0x3d580b4b	0.052745145
246	0xbd653700	-0.055960655
247	0xbd67b1ab	-0.05656592
248	0x3b45019c	0.0030060774
249	0xbbbc1d59	-0.005740803
250	0xbd9296d4	-0.071576744
251	0xba4e5c52	-0.0007872033
252	0xbcb65aa3	-0.022260016
253	0x3d49605a	0.049164154
254	0x3cf6afa9	0.030113058
255	0x3c842712	0.016131911
